…
Uncertainty:                  0.859        83
Volition:                     0.791        13

Micro-f1 score:               0.810
Macro-f1 score:               0.803

Accuracy                      0.578
['LR', 'Multi-label', 400, 0.8033894662811203, 0.8103901272045435, 0.5784619188921859]
Fold  1
multi-class
multi-class
Loading Data
Training Model
vocab size 4537, sequence length 43
Building FastText Model
_________________________________________________________________
Layer (type)                 Output Shape              Param #   
=================================================================
input_1 (InputLayer)         (None, 43)                0         
_________________________________________________________________
embedding_1 (Embedding)      (None, 43, 100)           453700    
_________________________________________________________________
global_average_pooling1d_1 ( (None, 100)               0         
_________________________________________________________________
dense_1 (Dense)              (None, 637)               64337     
=================================================================
Total params: 518,037
Trainable params: 518,037
Non-trainable params: 0
_________________________________________________________________
None
2018-09-09 01:22:56.437561: I tensorflow/core/platform/cpu_feature_guard.cc:141] Your CPU supports instructions that this TensorFlow binary was not compiled to use: AVX2 FMA
Fold  2
multi-class
multi-class
Loading Data
Training Model
vocab size 4561, sequence length 45
Building FastText Model
_________________________________________________________________
Layer (type)                 Output Shape              Param #   
=================================================================
input_2 (InputLayer)         (None, 45)                0         
_________________________________________________________________
embedding_2 (Embedding)      (None, 45, 100)           456100    
_________________________________________________________________
global_average_pooling1d_2 ( (None, 100)               0         
_________________________________________________________________
dense_2 (Dense)              (None, 637)               64337     
=================================================================
Total params: 520,437
Trainable params: 520,437
Non-trainable params: 0
_________________________________________________________________
None
Fold  3
multi-class
multi-class
Loading Data
Training Model
vocab size 4569, sequence length 45
Building FastText Model
_________________________________________________________________
Layer (type)                 Output Shape              Param #   
=================================================================
input_3 (InputLayer)         (None, 45)                0         
_________________________________________________________________
embedding_3 (Embedding)      (None, 45, 100)           456900    
_________________________________________________________________
global_average_pooling1d_3 ( (None, 100)               0         
_________________________________________________________________
dense_3 (Dense)              (None, 637)               64337     
=================================================================
Total params: 521,237
Trainable params: 521,237
Non-trainable params: 0
_________________________________________________________________
None
Fold  4
multi-class
multi-class
Loading Data
Training Model
vocab size 4518, sequence length 45
Building FastText Model
_________________________________________________________________
Layer (type)                 Output Shape              Param #   
=================================================================
input_4 (InputLayer)         (None, 45)                0         
_________________________________________________________________
embedding_4 (Embedding)      (None, 45, 100)           451800    
_________________________________________________________________
global_average_pooling1d_4 ( (None, 100)               0         
_________________________________________________________________
dense_4 (Dense)              (None, 637)               64337     
=================================================================
Total params: 516,137
Trainable params: 516,137
Non-trainable params: 0
_________________________________________________________________
None
Fold  5
multi-class
multi-class
Loading Data
Training Model
vocab size 4426, sequence length 45
Building FastText Model
_________________________________________________________________
Layer (type)                 Output Shape              Param #   
=================================================================
input_5 (InputLayer)         (None, 45)                0         
_________________________________________________________________
embedding_5 (Embedding)      (None, 45, 100)           442600    
_________________________________________________________________
global_average_pooling1d_5 ( (None, 100)               0         
_________________________________________________________________
dense_5 (Dense)              (None, 637)               64337     
=================================================================
Total params: 506,937
Trainable params: 506,937
Non-trainable params: 0
_________________________________________________________________
None
time elapsed: 14.681339155002206
Fold  1
multi-class
multi-class
Loading Data
Training Model
vocab size 4537, sequence length 43
Building FastText Model
_________________________________________________________________
Layer (type)                 Output Shape              Param #   
=================================================================
input_6 (InputLayer)         (None, 43)                0         
_________________________________________________________________
embedding_6 (Embedding)      (None, 43, 100)           453700    
_________________________________________________________________
global_average_pooling1d_6 ( (None, 100)               0         
_________________________________________________________________
dense_6 (Dense)              (None, 637)               64337     
=================================================================
Total params: 518,037
Trainable params: 518,037
Non-trainable params: 0
_________________________________________________________________
None
Fold  2
multi-class
multi-class
Loading Data
Training Model
vocab size 4561, sequence length 45
Building FastText Model
_________________________________________________________________
Layer (type)                 Output Shape              Param #   
=================================================================
input_7 (InputLayer)         (None, 45)                0         
_________________________________________________________________
embedding_7 (Embedding)      (None, 45, 100)           456100    
_________________________________________________________________
global_average_pooling1d_7 ( (None, 100)               0         
_________________________________________________________________
dense_7 (Dense)              (None, 637)               64337     
=================================================================
Total params: 520,437
Trainable params: 520,437
Non-trainable params: 0
_________________________________________________________________
None
Fold  3
multi-class
multi-class
Loading Data
Training Model
vocab size 4569, sequence length 45
Building FastText Model
_________________________________________________________________
Layer (type)                 Output Shape              Param #   
=================================================================
input_8 (InputLayer)         (None, 45)                0         
_________________________________________________________________
embedding_8 (Embedding)      (None, 45, 100)           456900    
_________________________________________________________________
global_average_pooling1d_8 ( (None, 100)               0         
_________________________________________________________________
dense_8 (Dense)              (None, 637)               64337     
=================================================================
Total params: 521,237
Trainable params: 521,237
Non-trainable params: 0
_________________________________________________________________
None
Fold  4
multi-class
multi-class
Loading Data
Training Model
vocab size 4518, sequence length 45
Building FastText Model
_________________________________________________________________
Layer (type)                 Output Shape              Param #   
=================================================================
input_9 (InputLayer)         (None, 45)                0         
_________________________________________________________________
embedding_9 (Embedding)      (None, 45, 100)           451800    
_________________________________________________________________
global_average_pooling1d_9 ( (None, 100)               0         
_________________________________________________________________
dense_9 (Dense)              (None, 637)               64337     
=================================================================
Total params: 516,137
Trainable params: 516,137
Non-trainable params: 0
_________________________________________________________________
None
Fold  5
multi-class
multi-class
Loading Data
Training Model
vocab size 4426, sequence length 45
Building FastText Model
_________________________________________________________________
Layer (type)                 Output Shape              Param #   
=================================================================
input_10 (InputLayer)        (None, 45)                0         
_________________________________________________________________
embedding_10 (Embedding)     (None, 45, 100)           442600    
_________________________________________________________________
global_average_pooling1d_10  (None, 100)               0         
_________________________________________________________________
dense_10 (Dense)             (None, 637)               64337     
=================================================================
Total params: 506,937
Trainable params: 506,937
Non-trainable params: 0
_________________________________________________________________
None
time elapsed: 68.18887095800164
Fold  1
multi-class
multi-class
Loading Data
Training Model
vocab size 4537, sequence length 43
Building FastText Model
_________________________________________________________________
Layer (type)                 Output Shape              Param #   
=================================================================
input_11 (InputLayer)        (None, 43)                0         
_________________________________________________________________
embedding_11 (Embedding)     (None, 43, 100)           453700    
_________________________________________________________________
global_average_pooling1d_11  (None, 100)               0         
_________________________________________________________________
dense_11 (Dense)             (None, 637)               64337     
=================================================================
Total params: 518,037
Trainable params: 518,037
Non-trainable params: 0
_________________________________________________________________
None
Fold  2
multi-class
multi-class
Loading Data
Training Model
vocab size 4561, sequence length 45
Building FastText Model
_________________________________________________________________
Layer (type)                 Output Shape              Param #   
=================================================================
input_12 (InputLayer)        (None, 45)                0         
_________________________________________________________________
embedding_12 (Embedding)     (None, 45, 100)           456100    
_________________________________________________________________
global_average_pooling1d_12  (None, 100)               0         
_________________________________________________________________
dense_12 (Dense)             (None, 637)               64337     
=================================================================
Total params: 520,437
Trainable params: 520,437
Non-trainable params: 0
_________________________________________________________________
None
Fold  3
multi-class
multi-class
Loading Data
Training Model
vocab size 4569, sequence length 45
Building FastText Model
_________________________________________________________________
Layer (type)                 Output Shape              Param #   
=================================================================
input_13 (InputLayer)        (None, 45)                0         
_________________________________________________________________
embedding_13 (Embedding)     (None, 45, 100)           456900    
_________________________________________________________________
global_average_pooling1d_13  (None, 100)               0         
_________________________________________________________________
dense_13 (Dense)             (None, 637)               64337     
=================================================================
Total params: 521,237
Trainable params: 521,237
Non-trainable params: 0
_________________________________________________________________
None
Fold  4
multi-class
multi-class
Loading Data
Training Model
vocab size 4518, sequence length 45
Building FastText Model
_________________________________________________________________
Layer (type)                 Output Shape              Param #   
=================================================================
input_14 (InputLayer)        (None, 45)                0         
_________________________________________________________________
embedding_14 (Embedding)     (None, 45, 100)           451800    
_________________________________________________________________
global_average_pooling1d_14  (None, 100)               0         
_________________________________________________________________
dense_14 (Dense)             (None, 637)               64337     
=================================================================
Total params: 516,137
Trainable params: 516,137
Non-trainable params: 0
_________________________________________________________________
None
Fold  5
multi-class
multi-class
Loading Data
Training Model
vocab size 4426, sequence length 45
Building FastText Model
_________________________________________________________________
Layer (type)                 Output Shape              Param #   
=================================================================
input_15 (InputLayer)        (None, 45)                0         
_________________________________________________________________
embedding_15 (Embedding)     (None, 45, 100)           442600    
_________________________________________________________________
global_average_pooling1d_15  (None, 100)               0         
_________________________________________________________________
dense_15 (Dense)             (None, 637)               64337     
=================================================================
Total params: 506,937
Trainable params: 506,937
Non-trainable params: 0
_________________________________________________________________
None
time elapsed: 121.27967850000277
Fold  1
multi-class
multi-class
Loading Data
Training Model
vocab size 4537, sequence length 43
Building FastText Model
_________________________________________________________________
Layer (type)                 Output Shape              Param #   
=================================================================
input_16 (InputLayer)        (None, 43)                0         
_________________________________________________________________
embedding_16 (Embedding)     (None, 43, 100)           453700    
_________________________________________________________________
global_average_pooling1d_16  (None, 100)               0         
_________________________________________________________________
dense_16 (Dense)             (None, 637)               64337     
=================================================================
Total params: 518,037
Trainable params: 518,037
Non-trainable params: 0
_________________________________________________________________
None
Fold  2
multi-class
multi-class
Loading Data
Training Model
vocab size 4561, sequence length 45
Building FastText Model
_________________________________________________________________
Layer (type)                 Output Shape              Param #   
=================================================================
input_17 (InputLayer)        (None, 45)                0         
_________________________________________________________________
embedding_17 (Embedding)     (None, 45, 100)           456100    
_________________________________________________________________
global_average_pooling1d_17  (None, 100)               0         
_________________________________________________________________
dense_17 (Dense)             (None, 637)               64337     
=================================================================
Total params: 520,437
Trainable params: 520,437
Non-trainable params: 0
_________________________________________________________________
None
Fold  3
multi-class
multi-class
Loading Data
Training Model
vocab size 4569, sequence length 45
Building FastText Model
_________________________________________________________________
Layer (type)                 Output Shape              Param #   
=================================================================
input_18 (InputLayer)        (None, 45)                0         
_________________________________________________________________
embedding_18 (Embedding)     (None, 45, 100)           456900    
_________________________________________________________________
global_average_pooling1d_18  (None, 100)               0         
_________________________________________________________________
dense_18 (Dense)             (None, 637)               64337     
=================================================================
Total params: 521,237
Trainable params: 521,237
Non-trainable params: 0
_________________________________________________________________
None
Fold  4
multi-class
multi-class
Loading Data
Training Model
vocab size 4518, sequence length 45
Building FastText Model
_________________________________________________________________
Layer (type)                 Output Shape              Param #   
=================================================================
input_19 (InputLayer)        (None, 45)                0         
_________________________________________________________________
embedding_19 (Embedding)     (None, 45, 100)           451800    
_________________________________________________________________
global_average_pooling1d_19  (None, 100)               0         
_________________________________________________________________
dense_19 (Dense)             (None, 637)               64337     
=================================================================
Total params: 516,137
Trainable params: 516,137
Non-trainable params: 0
_________________________________________________________________
None
Fold  5
multi-class
multi-class
Loading Data
Training Model
vocab size 4426, sequence length 45
Building FastText Model
_________________________________________________________________
Layer (type)                 Output Shape              Param #   
=================================================================
input_20 (InputLayer)        (None, 45)                0         
_________________________________________________________________
embedding_20 (Embedding)     (None, 45, 100)           442600    
_________________________________________________________________
global_average_pooling1d_20  (None, 100)               0         
_________________________________________________________________
dense_20 (Dense)             (None, 637)               64337     
=================================================================
Total params: 506,937
Trainable params: 506,937
Non-trainable params: 0
_________________________________________________________________
None
time elapsed: 171.7468875429986
Fold  1
multi-class
multi-class
Loading Data
Training Model
vocab size 4537, sequence length 43
Building FastText Model
_________________________________________________________________
Layer (type)                 Output Shape              Param #   
=================================================================
input_21 (InputLayer)        (None, 43)                0         
_________________________________________________________________
embedding_21 (Embedding)     (None, 43, 100)           453700    
_________________________________________________________________
global_average_pooling1d_21  (None, 100)               0         
_________________________________________________________________
dense_21 (Dense)             (None, 637)               64337     
=================================================================
Total params: 518,037
Trainable params: 518,037
Non-trainable params: 0
_________________________________________________________________
None
Fold  2
multi-class
multi-class
Loading Data
Training Model
vocab size 4561, sequence length 45
Building FastText Model
_________________________________________________________________
Layer (type)                 Output Shape              Param #   
=================================================================
input_22 (InputLayer)        (None, 45)                0         
_________________________________________________________________
embedding_22 (Embedding)     (None, 45, 100)           456100    
_________________________________________________________________
global_average_pooling1d_22  (None, 100)               0         
_________________________________________________________________
dense_22 (Dense)             (None, 637)               64337     
=================================================================
Total params: 520,437
Trainable params: 520,437
Non-trainable params: 0
_________________________________________________________________
None
Fold  3
multi-class
multi-class
Loading Data
Training Model
vocab size 4569, sequence length 45
Building FastText Model
_________________________________________________________________
Layer (type)                 Output Shape              Param #   
=================================================================
input_23 (InputLayer)        (None, 45)                0         
_________________________________________________________________
embedding_23 (Embedding)     (None, 45, 100)           456900    
_________________________________________________________________
global_average_pooling1d_23  (None, 100)               0         
_________________________________________________________________
dense_23 (Dense)             (None, 637)               64337     
=================================================================
Total params: 521,237
Trainable params: 521,237
Non-trainable params: 0
_________________________________________________________________
None
Fold  4
multi-class
multi-class
Loading Data
Training Model
vocab size 4518, sequence length 45
Building FastText Model
_________________________________________________________________
Layer (type)                 Output Shape              Param #   
=================================================================
input_24 (InputLayer)        (None, 45)                0         
_________________________________________________________________
embedding_24 (Embedding)     (None, 45, 100)           451800    
_________________________________________________________________
global_average_pooling1d_24  (None, 100)               0         
_________________________________________________________________
dense_24 (Dense)             (None, 637)               64337     
=================================================================
Total params: 516,137
Trainable params: 516,137
Non-trainable params: 0
_________________________________________________________________
None
Fold  5
multi-class
multi-class
Loading Data
Training Model
vocab size 4426, sequence length 45
Building FastText Model
_________________________________________________________________
Layer (type)                 Output Shape              Param #   
=================================================================
input_25 (InputLayer)        (None, 45)                0         
_________________________________________________________________
embedding_25 (Embedding)     (None, 45, 100)           442600    
_________________________________________________________________
global_average_pooling1d_25  (None, 100)               0         
_________________________________________________________________
dense_25 (Dense)             (None, 637)               64337     
=================================================================
Total params: 506,937
Trainable params: 506,937
Non-trainable params: 0
_________________________________________________________________
None
time elapsed: 220.52205097499973
Fold  1
multi-class
multi-class
Loading Data
Training Model
vocab size 4537, sequence length 43
Building FastText Model
_________________________________________________________________
Layer (type)                 Output Shape              Param #   
=================================================================
input_26 (InputLayer)        (None, 43)                0         
_________________________________________________________________
embedding_26 (Embedding)     (None, 43, 100)           453700    
_________________________________________________________________
global_average_pooling1d_26  (None, 100)               0         
_________________________________________________________________
dense_26 (Dense)             (None, 637)               64337     
=================================================================
Total params: 518,037
Trainable params: 518,037
Non-trainable params: 0
_________________________________________________________________
None
Fold  2
multi-class
multi-class
Loading Data
Training Model
vocab size 4561, sequence length 45
Building FastText Model
_________________________________________________________________
Layer (type)                 Output Shape              Param #   
=================================================================
input_27 (InputLayer)        (None, 45)                0         
_________________________________________________________________
embedding_27 (Embedding)     (None, 45, 100)           456100    
_________________________________________________________________
global_average_pooling1d_27  (None, 100)               0         
_________________________________________________________________
dense_27 (Dense)             (None, 637)               64337     
=================================================================
Total params: 520,437
Trainable params: 520,437
Non-trainable params: 0
_________________________________________________________________
None
Fold  3
multi-class
multi-class
Loading Data
Training Model
vocab size 4569, sequence length 45
Building FastText Model
_________________________________________________________________
Layer (type)                 Output Shape              Param #   
=================================================================
input_28 (InputLayer)        (None, 45)                0         
_________________________________________________________________
embedding_28 (Embedding)     (None, 45, 100)           456900    
_________________________________________________________________
global_average_pooling1d_28  (None, 100)               0         
_________________________________________________________________
dense_28 (Dense)             (None, 637)               64337     
=================================================================
Total params: 521,237
Trainable params: 521,237
Non-trainable params: 0
_________________________________________________________________
None
Fold  4
multi-class
multi-class
Loading Data
Training Model
vocab size 4518, sequence length 45
Building FastText Model
_________________________________________________________________
Layer (type)                 Output Shape              Param #   
=================================================================
input_29 (InputLayer)        (None, 45)                0         
_________________________________________________________________
embedding_29 (Embedding)     (None, 45, 100)           451800    
_________________________________________________________________
global_average_pooling1d_29  (None, 100)               0         
_________________________________________________________________
dense_29 (Dense)             (None, 637)               64337     
=================================================================
Total params: 516,137
Trainable params: 516,137
Non-trainable params: 0
_________________________________________________________________
None
Fold  5
multi-class
multi-class
Loading Data
Training Model
vocab size 4426, sequence length 45
Building FastText Model
_________________________________________________________________
Layer (type)                 Output Shape              Param #   
=================================================================
input_30 (InputLayer)        (None, 45)                0         
_________________________________________________________________
embedding_30 (Embedding)     (None, 45, 100)           442600    
_________________________________________________________________
global_average_pooling1d_30  (None, 100)               0         
_________________________________________________________________
dense_30 (Dense)             (None, 637)               64337     
=================================================================
Total params: 506,937
Trainable params: 506,937
Non-trainable params: 0
_________________________________________________________________
None
time elapsed: 265.1699156649993
Fold  1
multi-class
multi-class
Loading Data
Training Model
vocab size 4537, sequence length 43
Building FastText Model
_________________________________________________________________
Layer (type)                 Output Shape              Param #   
=================================================================
input_31 (InputLayer)        (None, 43)                0         
_________________________________________________________________
embedding_31 (Embedding)     (None, 43, 100)           453700    
_________________________________________________________________
global_average_pooling1d_31  (None, 100)               0         
_________________________________________________________________
dense_31 (Dense)             (None, 637)               64337     
=================================================================
Total params: 518,037
Trainable params: 518,037
Non-trainable params: 0
_________________________________________________________________
None
Fold  2
multi-class
multi-class
Loading Data
Training Model
vocab size 4561, sequence length 45
Building FastText Model
_________________________________________________________________
Layer (type)                 Output Shape              Param #   
=================================================================
input_32 (InputLayer)        (None, 45)                0         
_________________________________________________________________
embedding_32 (Embedding)     (None, 45, 100)           456100    
_________________________________________________________________
global_average_pooling1d_32  (None, 100)               0         
_________________________________________________________________
dense_32 (Dense)             (None, 637)               64337     
=================================================================
Total params: 520,437
Trainable params: 520,437
Non-trainable params: 0
_________________________________________________________________
None
Fold  3
multi-class
multi-class
Loading Data
Training Model
vocab size 4569, sequence length 45
Building FastText Model
_________________________________________________________________
Layer (type)                 Output Shape              Param #   
=================================================================
input_33 (InputLayer)        (None, 45)                0         
_________________________________________________________________
embedding_33 (Embedding)     (None, 45, 100)           456900    
_________________________________________________________________
global_average_pooling1d_33  (None, 100)               0         
_________________________________________________________________
dense_33 (Dense)             (None, 637)               64337     
=================================================================
Total params: 521,237
Trainable params: 521,237
Non-trainable params: 0
_________________________________________________________________
None
Fold  4
multi-class
multi-class
Loading Data
Training Model
vocab size 4518, sequence length 45
Building FastText Model
_________________________________________________________________
Layer (type)                 Output Shape              Param #   
=================================================================
input_34 (InputLayer)        (None, 45)                0         
_________________________________________________________________
embedding_34 (Embedding)     (None, 45, 100)           451800    
_________________________________________________________________
global_average_pooling1d_34  (None, 100)               0         
_________________________________________________________________
dense_34 (Dense)             (None, 637)               64337     
=================================================================
Total params: 516,137
Trainable params: 516,137
Non-trainable params: 0
_________________________________________________________________
None
Fold  5
multi-class
multi-class
Loading Data
Training Model
vocab size 4426, sequence length 45
Building FastText Model
_________________________________________________________________
Layer (type)                 Output Shape              Param #   
=================================================================
input_35 (InputLayer)        (None, 45)                0         
_________________________________________________________________
embedding_35 (Embedding)     (None, 45, 100)           442600    
_________________________________________________________________
global_average_pooling1d_35  (None, 100)               0         
_________________________________________________________________
dense_35 (Dense)             (None, 637)               64337     
=================================================================
Total params: 506,937
Trainable params: 506,937
Non-trainable params: 0
_________________________________________________________________
None
time elapsed: 313.39542596099636
Fold  1
multi-class
multi-class
Loading Data
Training Model
vocab size 4537, sequence length 43
Building FastText Model
_________________________________________________________________
Layer (type)                 Output Shape              Param #   
=================================================================
input_36 (InputLayer)        (None, 43)                0         
_________________________________________________________________
embedding_36 (Embedding)     (None, 43, 100)           453700    
_________________________________________________________________
global_average_pooling1d_36  (None, 100)               0         
_________________________________________________________________
dense_36 (Dense)             (None, 637)               64337     
=================================================================
Total params: 518,037
Trainable params: 518,037
Non-trainable params: 0
_________________________________________________________________
None
Fold  2
multi-class
multi-class
Loading Data
Training Model
vocab size 4561, sequence length 45
Building FastText Model
_________________________________________________________________
Layer (type)                 Output Shape              Param #   
=================================================================
input_37 (InputLayer)        (None, 45)                0         
_________________________________________________________________
embedding_37 (Embedding)     (None, 45, 100)           456100    
_________________________________________________________________
global_average_pooling1d_37  (None, 100)               0         
_________________________________________________________________
dense_37 (Dense)             (None, 637)               64337     
=================================================================
Total params: 520,437
Trainable params: 520,437
Non-trainable params: 0
_________________________________________________________________
None
Fold  3
multi-class
multi-class
Loading Data
Training Model
vocab size 4569, sequence length 45
Building FastText Model
_________________________________________________________________
Layer (type)                 Output Shape              Param #   
=================================================================
input_38 (InputLayer)        (None, 45)                0         
_________________________________________________________________
embedding_38 (Embedding)     (None, 45, 100)           456900    
_________________________________________________________________
global_average_pooling1d_38  (None, 100)               0         
_________________________________________________________________
dense_38 (Dense)             (None, 637)               64337     
=================================================================
Total params: 521,237
Trainable params: 521,237
Non-trainable params: 0
_________________________________________________________________
None
Fold  4
multi-class
multi-class
Loading Data
Training Model
vocab size 4518, sequence length 45
Building FastText Model
_________________________________________________________________
Layer (type)                 Output Shape              Param #   
=================================================================
input_39 (InputLayer)        (None, 45)                0         
_________________________________________________________________
embedding_39 (Embedding)     (None, 45, 100)           451800    
_________________________________________________________________
global_average_pooling1d_39  (None, 100)               0         
_________________________________________________________________
dense_39 (Dense)             (None, 637)               64337     
=================================================================
Total params: 516,137
Trainable params: 516,137
Non-trainable params: 0
_________________________________________________________________
None
Fold  5
multi-class
multi-class
Loading Data
Training Model
vocab size 4426, sequence length 45
Building FastText Model
_________________________________________________________________
Layer (type)                 Output Shape              Param #   
=================================================================
input_40 (InputLayer)        (None, 45)                0         
_________________________________________________________________
embedding_40 (Embedding)     (None, 45, 100)           442600    
_________________________________________________________________
global_average_pooling1d_40  (None, 100)               0         
_________________________________________________________________
dense_40 (Dense)             (None, 637)               64337     
=================================================================
Total params: 506,937
Trainable params: 506,937
Non-trainable params: 0
_________________________________________________________________
None
time elapsed: 364.92785476700374
Fold  1
multi-class
multi-class
Loading Data
Training Model
vocab size 4537, sequence length 43
Building FastText Model
_________________________________________________________________
Layer (type)                 Output Shape              Param #   
=================================================================
input_41 (InputLayer)        (None, 43)                0         
_________________________________________________________________
embedding_41 (Embedding)     (None, 43, 100)           453700    
_________________________________________________________________
global_average_pooling1d_41  (None, 100)               0         
_________________________________________________________________
dense_41 (Dense)             (None, 637)               64337     
=================================================================
Total params: 518,037
Trainable params: 518,037
Non-trainable params: 0
_________________________________________________________________
None
Fold  2
multi-class
multi-class
Loading Data
Training Model
vocab size 4561, sequence length 45
Building FastText Model
_________________________________________________________________
Layer (type)                 Output Shape              Param #   
=================================================================
input_42 (InputLayer)        (None, 45)                0         
_________________________________________________________________
embedding_42 (Embedding)     (None, 45, 100)           456100    
_________________________________________________________________
global_average_pooling1d_42  (None, 100)               0         
_________________________________________________________________
dense_42 (Dense)             (None, 637)               64337     
=================================================================
Total params: 520,437
Trainable params: 520,437
Non-trainable params: 0
_________________________________________________________________
None
Fold  3
multi-class
multi-class
Loading Data
Training Model
vocab size 4569, sequence length 45
Building FastText Model
_________________________________________________________________
Layer (type)                 Output Shape              Param #   
=================================================================
input_43 (InputLayer)        (None, 45)                0         
_________________________________________________________________
embedding_43 (Embedding)     (None, 45, 100)           456900    
_________________________________________________________________
global_average_pooling1d_43  (None, 100)               0         
_________________________________________________________________
dense_43 (Dense)             (None, 637)               64337     
=================================================================
Total params: 521,237
Trainable params: 521,237
Non-trainable params: 0
_________________________________________________________________
None
Fold  4
multi-class
multi-class
Loading Data
Training Model
vocab size 4518, sequence length 45
Building FastText Model
_________________________________________________________________
Layer (type)                 Output Shape              Param #   
=================================================================
input_44 (InputLayer)        (None, 45)                0         
_________________________________________________________________
embedding_44 (Embedding)     (None, 45, 100)           451800    
_________________________________________________________________
global_average_pooling1d_44  (None, 100)               0         
_________________________________________________________________
dense_44 (Dense)             (None, 637)               64337     
=================================================================
Total params: 516,137
Trainable params: 516,137
Non-trainable params: 0
_________________________________________________________________
None
Fold  5
multi-class
multi-class
Loading Data
Training Model
vocab size 4426, sequence length 45
Building FastText Model
_________________________________________________________________
Layer (type)                 Output Shape              Param #   
=================================================================
input_45 (InputLayer)        (None, 45)                0         
_________________________________________________________________
embedding_45 (Embedding)     (None, 45, 100)           442600    
_________________________________________________________________
global_average_pooling1d_45  (None, 100)               0         
_________________________________________________________________
dense_45 (Dense)             (None, 637)               64337     
=================================================================
Total params: 506,937
Trainable params: 506,937
Non-trainable params: 0
_________________________________________________________________
None
time elapsed: 417.6429088110017


Epochs: 10
/home/dan/.local/lib/python3.6/site-packages/sklearn/metrics/classification.py:1135: UndefinedMetricWarning: F-score is ill-defined and being set to 0.0 in labels with no predicted samples.
…
Epochs: 400

Hamming Loss:                 0.345


Micro-f1 score:               0.655
Macro-f1 score:               0.792

Accuracy                      0.655
['FastText', 'Multi-class', 400, 0.7915221850321199, 0.6545711459658047, 0.6545711459658047]
Fold  1
multi-label
multi-label
Loading Data
Training Model
vocab size 4537, sequence length 43
Building FastText Model
_________________________________________________________________
Layer (type)                 Output Shape              Param #   
=================================================================
input_46 (InputLayer)        (None, 43)                0         
_________________________________________________________________
embedding_46 (Embedding)     (None, 43, 100)           453700    
_________________________________________________________________
global_average_pooling1d_46  (None, 100)               0         
_________________________________________________________________
dense_46 (Dense)             (None, 10)                1010      
=================================================================
Total params: 454,710
Trainable params: 454,710
Non-trainable params: 0
_________________________________________________________________
None
Fold  2
multi-label
multi-label
Loading Data
Training Model
vocab size 4561, sequence length 45
Building FastText Model
_________________________________________________________________
Layer (type)                 Output Shape              Param #   
=================================================================
input_47 (InputLayer)        (None, 45)                0         
_________________________________________________________________
embedding_47 (Embedding)     (None, 45, 100)           456100    
_________________________________________________________________
global_average_pooling1d_47  (None, 100)               0         
_________________________________________________________________
dense_47 (Dense)             (None, 10)                1010      
=================================================================
Total params: 457,110
Trainable params: 457,110
Non-trainable params: 0
_________________________________________________________________
None
Fold  3
multi-label
multi-label
Loading Data
Training Model
vocab size 4569, sequence length 45
Building FastText Model
_________________________________________________________________
Layer (type)                 Output Shape              Param #   
=================================================================
input_48 (InputLayer)        (None, 45)                0         
_________________________________________________________________
embedding_48 (Embedding)     (None, 45, 100)           456900    
_________________________________________________________________
global_average_pooling1d_48  (None, 100)               0         
_________________________________________________________________
dense_48 (Dense)             (None, 10)                1010      
=================================================================
Total params: 457,910
Trainable params: 457,910
Non-trainable params: 0
_________________________________________________________________
None
Fold  4
multi-label
multi-label
Loading Data
Training Model
vocab size 4518, sequence length 45
Building FastText Model
_________________________________________________________________
Layer (type)                 Output Shape              Param #   
=================================================================
input_49 (InputLayer)        (None, 45)                0         
_________________________________________________________________
embedding_49 (Embedding)     (None, 45, 100)           451800    
_________________________________________________________________
global_average_pooling1d_49  (None, 100)               0         
_________________________________________________________________
dense_49 (Dense)             (None, 10)                1010      
=================================================================
Total params: 452,810
Trainable params: 452,810
Non-trainable params: 0
_________________________________________________________________
None
Fold  5
multi-label
multi-label
Loading Data
Training Model
vocab size 4426, sequence length 45
Building FastText Model
_________________________________________________________________
Layer (type)                 Output Shape              Param #   
=================================================================
input_50 (InputLayer)        (None, 45)                0         
_________________________________________________________________
embedding_50 (Embedding)     (None, 45, 100)           442600    
_________________________________________________________________
global_average_pooling1d_50  (None, 100)               0         
_________________________________________________________________
dense_50 (Dense)             (None, 10)                1010      
=================================================================
Total params: 443,610
Trainable params: 443,610
Non-trainable params: 0
_________________________________________________________________
None
time elapsed: 18.41443814500235
Fold  1
multi-label
multi-label
Loading Data
Training Model
vocab size 4537, sequence length 43
Building FastText Model
_________________________________________________________________
Layer (type)                 Output Shape              Param #   
=================================================================
input_51 (InputLayer)        (None, 43)                0         
_________________________________________________________________
embedding_51 (Embedding)     (None, 43, 100)           453700    
_________________________________________________________________
global_average_pooling1d_51  (None, 100)               0         
_________________________________________________________________
dense_51 (Dense)             (None, 10)                1010      
=================================================================
Total params: 454,710
Trainable params: 454,710
Non-trainable params: 0
_________________________________________________________________
None
Fold  2
multi-label
multi-label
Loading Data
Training Model
vocab size 4561, sequence length 45
Building FastText Model
_________________________________________________________________
Layer (type)                 Output Shape              Param #   
=================================================================
input_52 (InputLayer)        (None, 45)                0         
_________________________________________________________________
embedding_52 (Embedding)     (None, 45, 100)           456100    
_________________________________________________________________
global_average_pooling1d_52  (None, 100)               0         
_________________________________________________________________
dense_52 (Dense)             (None, 10)                1010      
=================================================================
Total params: 457,110
Trainable params: 457,110
Non-trainable params: 0
_________________________________________________________________
None
Fold  3
multi-label
multi-label
Loading Data
Training Model
vocab size 4569, sequence length 45
Building FastText Model
_________________________________________________________________
Layer (type)                 Output Shape              Param #   
=================================================================
input_53 (InputLayer)        (None, 45)                0         
_________________________________________________________________
embedding_53 (Embedding)     (None, 45, 100)           456900    
_________________________________________________________________
global_average_pooling1d_53  (None, 100)               0         
_________________________________________________________________
dense_53 (Dense)             (None, 10)                1010      
=================================================================
Total params: 457,910
Trainable params: 457,910
Non-trainable params: 0
_________________________________________________________________
None
Fold  4
multi-label
multi-label
Loading Data
Training Model
vocab size 4518, sequence length 45
Building FastText Model
_________________________________________________________________
Layer (type)                 Output Shape              Param #   
=================================================================
input_54 (InputLayer)        (None, 45)                0         
_________________________________________________________________
embedding_54 (Embedding)     (None, 45, 100)           451800    
_________________________________________________________________
global_average_pooling1d_54  (None, 100)               0         
_________________________________________________________________
dense_54 (Dense)             (None, 10)                1010      
=================================================================
Total params: 452,810
Trainable params: 452,810
Non-trainable params: 0
_________________________________________________________________
None
Fold  5
multi-label
multi-label
Loading Data
Training Model
vocab size 4426, sequence length 45
Building FastText Model
_________________________________________________________________
Layer (type)                 Output Shape              Param #   
=================================================================
input_55 (InputLayer)        (None, 45)                0         
_________________________________________________________________
embedding_55 (Embedding)     (None, 45, 100)           442600    
_________________________________________________________________
global_average_pooling1d_55  (None, 100)               0         
_________________________________________________________________
dense_55 (Dense)             (None, 10)                1010      
=================================================================
Total params: 443,610
Trainable params: 443,610
Non-trainable params: 0
_________________________________________________________________
None
time elapsed: 52.81745912599581
Fold  1
multi-label
multi-label
Loading Data
Training Model
vocab size 4537, sequence length 43
Building FastText Model
_________________________________________________________________
Layer (type)                 Output Shape              Param #   
=================================================================
input_56 (InputLayer)        (None, 43)                0         
_________________________________________________________________
embedding_56 (Embedding)     (None, 43, 100)           453700    
_________________________________________________________________
global_average_pooling1d_56  (None, 100)               0         
_________________________________________________________________
dense_56 (Dense)             (None, 10)                1010      
=================================================================
Total params: 454,710
Trainable params: 454,710
Non-trainable params: 0
_________________________________________________________________
None
Fold  2
multi-label
multi-label
Loading Data
Training Model
vocab size 4561, sequence length 45
Building FastText Model
_________________________________________________________________
Layer (type)                 Output Shape              Param #   
=================================================================
input_57 (InputLayer)        (None, 45)                0         
_________________________________________________________________
embedding_57 (Embedding)     (None, 45, 100)           456100    
_________________________________________________________________
global_average_pooling1d_57  (None, 100)               0         
_________________________________________________________________
dense_57 (Dense)             (None, 10)                1010      
=================================================================
Total params: 457,110
Trainable params: 457,110
Non-trainable params: 0
_________________________________________________________________
None
Fold  3
multi-label
multi-label
Loading Data
Training Model
vocab size 4569, sequence length 45
Building FastText Model
_________________________________________________________________
Layer (type)                 Output Shape              Param #   
=================================================================
input_58 (InputLayer)        (None, 45)                0         
_________________________________________________________________
embedding_58 (Embedding)     (None, 45, 100)           456900    
_________________________________________________________________
global_average_pooling1d_58  (None, 100)               0         
_________________________________________________________________
dense_58 (Dense)             (None, 10)                1010      
=================================================================
Total params: 457,910
Trainable params: 457,910
Non-trainable params: 0
_________________________________________________________________
None
Fold  4
multi-label
multi-label
Loading Data
Training Model
vocab size 4518, sequence length 45
Building FastText Model
_________________________________________________________________
Layer (type)                 Output Shape              Param #   
=================================================================
input_59 (InputLayer)        (None, 45)                0         
_________________________________________________________________
embedding_59 (Embedding)     (None, 45, 100)           451800    
_________________________________________________________________
global_average_pooling1d_59  (None, 100)               0         
_________________________________________________________________
dense_59 (Dense)             (None, 10)                1010      
=================================================================
Total params: 452,810
Trainable params: 452,810
Non-trainable params: 0
_________________________________________________________________
None
Fold  5
multi-label
multi-label
Loading Data
Training Model
vocab size 4426, sequence length 45
Building FastText Model
_________________________________________________________________
Layer (type)                 Output Shape              Param #   
=================================================================
input_60 (InputLayer)        (None, 45)                0         
_________________________________________________________________
embedding_60 (Embedding)     (None, 45, 100)           442600    
_________________________________________________________________
global_average_pooling1d_60  (None, 100)               0         
_________________________________________________________________
dense_60 (Dense)             (None, 10)                1010      
=================================================================
Total params: 443,610
Trainable params: 443,610
Non-trainable params: 0
_________________________________________________________________
None
time elapsed: 96.4572725830003
Fold  1
multi-label
multi-label
Loading Data
Training Model
vocab size 4537, sequence length 43
Building FastText Model
_________________________________________________________________
Layer (type)                 Output Shape              Param #   
=================================================================
input_61 (InputLayer)        (None, 43)                0         
_________________________________________________________________
embedding_61 (Embedding)     (None, 43, 100)           453700    
_________________________________________________________________
global_average_pooling1d_61  (None, 100)               0         
_________________________________________________________________
dense_61 (Dense)             (None, 10)                1010      
=================================================================
Total params: 454,710
Trainable params: 454,710
Non-trainable params: 0
_________________________________________________________________
None
Fold  2
multi-label
multi-label
Loading Data
Training Model
vocab size 4561, sequence length 45
Building FastText Model
_________________________________________________________________
Layer (type)                 Output Shape              Param #   
=================================================================
input_62 (InputLayer)        (None, 45)                0         
_________________________________________________________________
embedding_62 (Embedding)     (None, 45, 100)           456100    
_________________________________________________________________
global_average_pooling1d_62  (None, 100)               0         
_________________________________________________________________
dense_62 (Dense)             (None, 10)                1010      
=================================================================
Total params: 457,110
Trainable params: 457,110
Non-trainable params: 0
_________________________________________________________________
None
Fold  3
multi-label
multi-label
Loading Data
Training Model
vocab size 4569, sequence length 45
Building FastText Model
_________________________________________________________________
Layer (type)                 Output Shape              Param #   
=================================================================
input_63 (InputLayer)        (None, 45)                0         
_________________________________________________________________
embedding_63 (Embedding)     (None, 45, 100)           456900    
_________________________________________________________________
global_average_pooling1d_63  (None, 100)               0         
_________________________________________________________________
dense_63 (Dense)             (None, 10)                1010      
=================================================================
Total params: 457,910
Trainable params: 457,910
Non-trainable params: 0
_________________________________________________________________
None
Fold  4
multi-label
multi-label
Loading Data
Training Model
vocab size 4518, sequence length 45
Building FastText Model
_________________________________________________________________
Layer (type)                 Output Shape              Param #   
=================================================================
input_64 (InputLayer)        (None, 45)                0         
_________________________________________________________________
embedding_64 (Embedding)     (None, 45, 100)           451800    
_________________________________________________________________
global_average_pooling1d_64  (None, 100)               0         
_________________________________________________________________
dense_64 (Dense)             (None, 10)                1010      
=================================================================
Total params: 452,810
Trainable params: 452,810
Non-trainable params: 0
_________________________________________________________________
None
Fold  5
multi-label
multi-label
Loading Data
Training Model
vocab size 4426, sequence length 45
Building FastText Model
_________________________________________________________________
Layer (type)                 Output Shape              Param #   
=================================================================
input_65 (InputLayer)        (None, 45)                0         
_________________________________________________________________
embedding_65 (Embedding)     (None, 45, 100)           442600    
_________________________________________________________________
global_average_pooling1d_65  (None, 100)               0         
_________________________________________________________________
dense_65 (Dense)             (None, 10)                1010      
=================================================================
Total params: 443,610
Trainable params: 443,610
Non-trainable params: 0
_________________________________________________________________
None
time elapsed: 141.66924686700077
Fold  1
multi-label
multi-label
Loading Data
Training Model
vocab size 4537, sequence length 43
Building FastText Model
_________________________________________________________________
Layer (type)                 Output Shape              Param #   
=================================================================
input_66 (InputLayer)        (None, 43)                0         
_________________________________________________________________
embedding_66 (Embedding)     (None, 43, 100)           453700    
_________________________________________________________________
global_average_pooling1d_66  (None, 100)               0         
_________________________________________________________________
dense_66 (Dense)             (None, 10)                1010      
=================================================================
Total params: 454,710
Trainable params: 454,710
Non-trainable params: 0
_________________________________________________________________
None
Fold  2
multi-label
multi-label
Loading Data
Training Model
vocab size 4561, sequence length 45
Building FastText Model
_________________________________________________________________
Layer (type)                 Output Shape              Param #   
=================================================================
input_67 (InputLayer)        (None, 45)                0         
_________________________________________________________________
embedding_67 (Embedding)     (None, 45, 100)           456100    
_________________________________________________________________
global_average_pooling1d_67  (None, 100)               0         
_________________________________________________________________
dense_67 (Dense)             (None, 10)                1010      
=================================================================
Total params: 457,110
Trainable params: 457,110
Non-trainable params: 0
_________________________________________________________________
None
Fold  3
multi-label
multi-label
Loading Data
Training Model
vocab size 4569, sequence length 45
Building FastText Model
_________________________________________________________________
Layer (type)                 Output Shape              Param #   
=================================================================
input_68 (InputLayer)        (None, 45)                0         
_________________________________________________________________
embedding_68 (Embedding)     (None, 45, 100)           456900    
_________________________________________________________________
global_average_pooling1d_68  (None, 100)               0         
_________________________________________________________________
dense_68 (Dense)             (None, 10)                1010      
=================================================================
Total params: 457,910
Trainable params: 457,910
Non-trainable params: 0
_________________________________________________________________
None
Fold  4
multi-label
multi-label
Loading Data
Training Model
vocab size 4518, sequence length 45
Building FastText Model
_________________________________________________________________
Layer (type)                 Output Shape              Param #   
=================================================================
input_69 (InputLayer)        (None, 45)                0         
_________________________________________________________________
embedding_69 (Embedding)     (None, 45, 100)           451800    
_________________________________________________________________
global_average_pooling1d_69  (None, 100)               0         
_________________________________________________________________
dense_69 (Dense)             (None, 10)                1010      
=================================================================
Total params: 452,810
Trainable params: 452,810
Non-trainable params: 0
_________________________________________________________________
None
Fold  5
multi-label
multi-label
Loading Data
Training Model
vocab size 4426, sequence length 45
Building FastText Model
_________________________________________________________________
Layer (type)                 Output Shape              Param #   
=================================================================
input_70 (InputLayer)        (None, 45)                0         
_________________________________________________________________
embedding_70 (Embedding)     (None, 45, 100)           442600    
_________________________________________________________________
global_average_pooling1d_70  (None, 100)               0         
_________________________________________________________________
dense_70 (Dense)             (None, 10)                1010      
=================================================================
Total params: 443,610
Trainable params: 443,610
Non-trainable params: 0
_________________________________________________________________
None
time elapsed: 187.23010651100049
Fold  1
multi-label
multi-label
Loading Data
Training Model
vocab size 4537, sequence length 43
Building FastText Model
_________________________________________________________________
Layer (type)                 Output Shape              Param #   
=================================================================
input_71 (InputLayer)        (None, 43)                0         
_________________________________________________________________
embedding_71 (Embedding)     (None, 43, 100)           453700    
_________________________________________________________________
global_average_pooling1d_71  (None, 100)               0         
_________________________________________________________________
dense_71 (Dense)             (None, 10)                1010      
=================================================================
Total params: 454,710
Trainable params: 454,710
Non-trainable params: 0
_________________________________________________________________
None
Fold  2
multi-label
multi-label
Loading Data
Training Model
vocab size 4561, sequence length 45
Building FastText Model
_________________________________________________________________
Layer (type)                 Output Shape              Param #   
=================================================================
input_72 (InputLayer)        (None, 45)                0         
_________________________________________________________________
embedding_72 (Embedding)     (None, 45, 100)           456100    
_________________________________________________________________
global_average_pooling1d_72  (None, 100)               0         
_________________________________________________________________
dense_72 (Dense)             (None, 10)                1010      
=================================================================
Total params: 457,110
Trainable params: 457,110
Non-trainable params: 0
_________________________________________________________________
None
Fold  3
multi-label
multi-label
Loading Data
Training Model
vocab size 4569, sequence length 45
Building FastText Model
_________________________________________________________________
Layer (type)                 Output Shape              Param #   
=================================================================
input_73 (InputLayer)        (None, 45)                0         
_________________________________________________________________
embedding_73 (Embedding)     (None, 45, 100)           456900    
_________________________________________________________________
global_average_pooling1d_73  (None, 100)               0         
_________________________________________________________________
dense_73 (Dense)             (None, 10)                1010      
=================================================================
Total params: 457,910
Trainable params: 457,910
Non-trainable params: 0
_________________________________________________________________
None
Fold  4
multi-label
multi-label
Loading Data
Training Model
vocab size 4518, sequence length 45
Building FastText Model
_________________________________________________________________
Layer (type)                 Output Shape              Param #   
=================================================================
input_74 (InputLayer)        (None, 45)                0         
_________________________________________________________________
embedding_74 (Embedding)     (None, 45, 100)           451800    
_________________________________________________________________
global_average_pooling1d_74  (None, 100)               0         
_________________________________________________________________
dense_74 (Dense)             (None, 10)                1010      
=================================================================
Total params: 452,810
Trainable params: 452,810
Non-trainable params: 0
_________________________________________________________________
None
Fold  5
multi-label
multi-label
Loading Data
Training Model
vocab size 4426, sequence length 45
Building FastText Model
_________________________________________________________________
Layer (type)                 Output Shape              Param #   
=================================================================
input_75 (InputLayer)        (None, 45)                0         
_________________________________________________________________
embedding_75 (Embedding)     (None, 45, 100)           442600    
_________________________________________________________________
global_average_pooling1d_75  (None, 100)               0         
_________________________________________________________________
dense_75 (Dense)             (None, 10)                1010      
=================================================================
Total params: 443,610
Trainable params: 443,610
Non-trainable params: 0
_________________________________________________________________
None
time elapsed: 234.54498272700584
Fold  1
multi-label
multi-label
Loading Data
Training Model
vocab size 4537, sequence length 43
Building FastText Model
_________________________________________________________________
Layer (type)                 Output Shape              Param #   
=================================================================
input_76 (InputLayer)        (None, 43)                0         
_________________________________________________________________
embedding_76 (Embedding)     (None, 43, 100)           453700    
_________________________________________________________________
global_average_pooling1d_76  (None, 100)               0         
_________________________________________________________________
dense_76 (Dense)             (None, 10)                1010      
=================================================================
Total params: 454,710
Trainable params: 454,710
Non-trainable params: 0
_________________________________________________________________
None
Fold  2
multi-label
multi-label
Loading Data
Training Model
vocab size 4561, sequence length 45
Building FastText Model
_________________________________________________________________
Layer (type)                 Output Shape              Param #   
=================================================================
input_77 (InputLayer)        (None, 45)                0         
_________________________________________________________________
embedding_77 (Embedding)     (None, 45, 100)           456100    
_________________________________________________________________
global_average_pooling1d_77  (None, 100)               0         
_________________________________________________________________
dense_77 (Dense)             (None, 10)                1010      
=================================================================
Total params: 457,110
Trainable params: 457,110
Non-trainable params: 0
_________________________________________________________________
None
Fold  3
multi-label
multi-label
Loading Data
Training Model
vocab size 4569, sequence length 45
Building FastText Model
_________________________________________________________________
Layer (type)                 Output Shape              Param #   
=================================================================
input_78 (InputLayer)        (None, 45)                0         
_________________________________________________________________
embedding_78 (Embedding)     (None, 45, 100)           456900    
_________________________________________________________________
global_average_pooling1d_78  (None, 100)               0         
_________________________________________________________________
dense_78 (Dense)             (None, 10)                1010      
=================================================================
Total params: 457,910
Trainable params: 457,910
Non-trainable params: 0
_________________________________________________________________
None
Fold  4
multi-label
multi-label
Loading Data
Training Model
vocab size 4518, sequence length 45
Building FastText Model
_________________________________________________________________
Layer (type)                 Output Shape              Param #   
=================================================================
input_79 (InputLayer)        (None, 45)                0         
_________________________________________________________________
embedding_79 (Embedding)     (None, 45, 100)           451800    
_________________________________________________________________
global_average_pooling1d_79  (None, 100)               0         
_________________________________________________________________
dense_79 (Dense)             (None, 10)                1010      
=================================================================
Total params: 452,810
Trainable params: 452,810
Non-trainable params: 0
_________________________________________________________________
None
Fold  5
multi-label
multi-label
Loading Data
Training Model
vocab size 4426, sequence length 45
Building FastText Model
_________________________________________________________________
Layer (type)                 Output Shape              Param #   
=================================================================
input_80 (InputLayer)        (None, 45)                0         
_________________________________________________________________
embedding_80 (Embedding)     (None, 45, 100)           442600    
_________________________________________________________________
global_average_pooling1d_80  (None, 100)               0         
_________________________________________________________________
dense_80 (Dense)             (None, 10)                1010      
=================================================================
Total params: 443,610
Trainable params: 443,610
Non-trainable params: 0
_________________________________________________________________
None
time elapsed: 281.5229938620032
Fold  1
multi-label
multi-label
Loading Data
Training Model
vocab size 4537, sequence length 43
Building FastText Model
_________________________________________________________________
Layer (type)                 Output Shape              Param #   
=================================================================
input_81 (InputLayer)        (None, 43)                0         
_________________________________________________________________
embedding_81 (Embedding)     (None, 43, 100)           453700    
_________________________________________________________________
global_average_pooling1d_81  (None, 100)               0         
_________________________________________________________________
dense_81 (Dense)             (None, 10)                1010      
=================================================================
Total params: 454,710
Trainable params: 454,710
Non-trainable params: 0
_________________________________________________________________
None
Fold  2
multi-label
multi-label
Loading Data
Training Model
vocab size 4561, sequence length 45
Building FastText Model
_________________________________________________________________
Layer (type)                 Output Shape              Param #   
=================================================================
input_82 (InputLayer)        (None, 45)                0         
_________________________________________________________________
embedding_82 (Embedding)     (None, 45, 100)           456100    
_________________________________________________________________
global_average_pooling1d_82  (None, 100)               0         
_________________________________________________________________
dense_82 (Dense)             (None, 10)                1010      
=================================================================
Total params: 457,110
Trainable params: 457,110
Non-trainable params: 0
_________________________________________________________________
None
Fold  3
multi-label
multi-label
Loading Data
Training Model
vocab size 4569, sequence length 45
Building FastText Model
_________________________________________________________________
Layer (type)                 Output Shape              Param #   
=================================================================
input_83 (InputLayer)        (None, 45)                0         
_________________________________________________________________
embedding_83 (Embedding)     (None, 45, 100)           456900    
_________________________________________________________________
global_average_pooling1d_83  (None, 100)               0         
_________________________________________________________________
dense_83 (Dense)             (None, 10)                1010      
=================================================================
Total params: 457,910
Trainable params: 457,910
Non-trainable params: 0
_________________________________________________________________
None
Fold  4
multi-label
multi-label
Loading Data
Training Model
vocab size 4518, sequence length 45
Building FastText Model
_________________________________________________________________
Layer (type)                 Output Shape              Param #   
=================================================================
input_84 (InputLayer)        (None, 45)                0         
_________________________________________________________________
embedding_84 (Embedding)     (None, 45, 100)           451800    
_________________________________________________________________
global_average_pooling1d_84  (None, 100)               0         
_________________________________________________________________
dense_84 (Dense)             (None, 10)                1010      
=================================================================
Total params: 452,810
Trainable params: 452,810
Non-trainable params: 0
_________________________________________________________________
None
Fold  5
multi-label
multi-label
Loading Data
Training Model
vocab size 4426, sequence length 45
Building FastText Model
_________________________________________________________________
Layer (type)                 Output Shape              Param #   
=================================================================
input_85 (InputLayer)        (None, 45)                0         
_________________________________________________________________
embedding_85 (Embedding)     (None, 45, 100)           442600    
_________________________________________________________________
global_average_pooling1d_85  (None, 100)               0         
_________________________________________________________________
dense_85 (Dense)             (None, 10)                1010      
=================================================================
Total params: 443,610
Trainable params: 443,610
Non-trainable params: 0
_________________________________________________________________
None
time elapsed: 331.5048608760044
Fold  1
multi-label
multi-label
Loading Data
Training Model
vocab size 4537, sequence length 43
Building FastText Model
_________________________________________________________________
Layer (type)                 Output Shape              Param #   
=================================================================
input_86 (InputLayer)        (None, 43)                0         
_________________________________________________________________
embedding_86 (Embedding)     (None, 43, 100)           453700    
_________________________________________________________________
global_average_pooling1d_86  (None, 100)               0         
_________________________________________________________________
dense_86 (Dense)             (None, 10)                1010      
=================================================================
Total params: 454,710
Trainable params: 454,710
Non-trainable params: 0
_________________________________________________________________
None
Fold  2
multi-label
multi-label
Loading Data
Training Model
vocab size 4561, sequence length 45
Building FastText Model
_________________________________________________________________
Layer (type)                 Output Shape              Param #   
=================================================================
input_87 (InputLayer)        (None, 45)                0         
_________________________________________________________________
embedding_87 (Embedding)     (None, 45, 100)           456100    
_________________________________________________________________
global_average_pooling1d_87  (None, 100)               0         
_________________________________________________________________
dense_87 (Dense)             (None, 10)                1010      
=================================================================
Total params: 457,110
Trainable params: 457,110
Non-trainable params: 0
_________________________________________________________________
None
Fold  3
multi-label
multi-label
Loading Data
Training Model
vocab size 4569, sequence length 45
Building FastText Model
_________________________________________________________________
Layer (type)                 Output Shape              Param #   
=================================================================
input_88 (InputLayer)        (None, 45)                0         
_________________________________________________________________
embedding_88 (Embedding)     (None, 45, 100)           456900    
_________________________________________________________________
global_average_pooling1d_88  (None, 100)               0         
_________________________________________________________________
dense_88 (Dense)             (None, 10)                1010      
=================================================================
Total params: 457,910
Trainable params: 457,910
Non-trainable params: 0
_________________________________________________________________
None
Fold  4
multi-label
multi-label
Loading Data
Training Model
vocab size 4518, sequence length 45
Building FastText Model
_________________________________________________________________
Layer (type)                 Output Shape              Param #   
=================================================================
input_89 (InputLayer)        (None, 45)                0         
_________________________________________________________________
embedding_89 (Embedding)     (None, 45, 100)           451800    
_________________________________________________________________
global_average_pooling1d_89  (None, 100)               0         
_________________________________________________________________
dense_89 (Dense)             (None, 10)                1010      
=================================================================
Total params: 452,810
Trainable params: 452,810
Non-trainable params: 0
_________________________________________________________________
None
Fold  5
multi-label
multi-label
Loading Data
Training Model
vocab size 4426, sequence length 45
Building FastText Model
_________________________________________________________________
Layer (type)                 Output Shape              Param #   
=================================================================
input_90 (InputLayer)        (None, 45)                0         
_________________________________________________________________
embedding_90 (Embedding)     (None, 45, 100)           442600    
_________________________________________________________________
global_average_pooling1d_90  (None, 100)               0         
_________________________________________________________________
dense_90 (Dense)             (None, 10)                1010      
=================================================================
Total params: 443,610
Trainable params: 443,610
Non-trainable params: 0
_________________________________________________________________
None
time elapsed: 379.98453513799905


Epochs: 10
/home/dan/.local/lib/python3.6/site-packages/sklearn/metrics/classification.py:1135: UndefinedMetricWarning: F-score is ill-defined and being set to 0.0 in labels with no predicted samples.
…
Macro-f1 score:               0.798

Accuracy                      0.546
['FastText', 'Multi-label', 400, 0.7978496992052639, 0.7982748689355856, 0.5463490885968632]
Fold  1
multi-task
multi-task
Loading Data
Training Model
vocab size 4537, sequence length 43
Building FastText Model
__________________________________________________________________________________________________
Layer (type)                    Output Shape         Param #     Connected to                     
==================================================================================================
input_91 (InputLayer)           (None, 43)           0                                            
__________________________________________________________________________________________________
embedding_91 (Embedding)        (None, 43, 100)      453700      input_91[0][0]                   
__________________________________________________________________________________________________
global_average_pooling1d_91 (Gl (None, 100)          0           embedding_91[0][0]               
__________________________________________________________________________________________________
dense_91 (Dense)                (None, 1)            101         global_average_pooling1d_91[0][0]
__________________________________________________________________________________________________
dense_92 (Dense)                (None, 1)            101         global_average_pooling1d_91[0][0]
__________________________________________________________________________________________________
dense_93 (Dense)                (None, 1)            101         global_average_pooling1d_91[0][0]
__________________________________________________________________________________________________
dense_94 (Dense)                (None, 1)            101         global_average_pooling1d_91[0][0]
__________________________________________________________________________________________________
dense_95 (Dense)                (None, 1)            101         global_average_pooling1d_91[0][0]
__________________________________________________________________________________________________
dense_96 (Dense)                (None, 1)            101         global_average_pooling1d_91[0][0]
__________________________________________________________________________________________________
dense_97 (Dense)                (None, 1)            101         global_average_pooling1d_91[0][0]
__________________________________________________________________________________________________
dense_98 (Dense)                (None, 1)            101         global_average_pooling1d_91[0][0]
__________________________________________________________________________________________________
dense_99 (Dense)                (None, 1)            101         global_average_pooling1d_91[0][0]
__________________________________________________________________________________________________
dense_100 (Dense)               (None, 1)            101         global_average_pooling1d_91[0][0]
==================================================================================================
Total params: 454,710
Trainable params: 454,710
Non-trainable params: 0
__________________________________________________________________________________________________
None
stacking
Fold  2
multi-task
multi-task
Loading Data
Training Model
vocab size 4561, sequence length 45
Building FastText Model
__________________________________________________________________________________________________
Layer (type)                    Output Shape         Param #     Connected to                     
==================================================================================================
input_92 (InputLayer)           (None, 45)           0                                            
__________________________________________________________________________________________________
embedding_92 (Embedding)        (None, 45, 100)      456100      input_92[0][0]                   
__________________________________________________________________________________________________
global_average_pooling1d_92 (Gl (None, 100)          0           embedding_92[0][0]               
__________________________________________________________________________________________________
dense_101 (Dense)               (None, 1)            101         global_average_pooling1d_92[0][0]
__________________________________________________________________________________________________
dense_102 (Dense)               (None, 1)            101         global_average_pooling1d_92[0][0]
__________________________________________________________________________________________________
dense_103 (Dense)               (None, 1)            101         global_average_pooling1d_92[0][0]
__________________________________________________________________________________________________
dense_104 (Dense)               (None, 1)            101         global_average_pooling1d_92[0][0]
__________________________________________________________________________________________________
dense_105 (Dense)               (None, 1)            101         global_average_pooling1d_92[0][0]
__________________________________________________________________________________________________
dense_106 (Dense)               (None, 1)            101         global_average_pooling1d_92[0][0]
__________________________________________________________________________________________________
dense_107 (Dense)               (None, 1)            101         global_average_pooling1d_92[0][0]
__________________________________________________________________________________________________
dense_108 (Dense)               (None, 1)            101         global_average_pooling1d_92[0][0]
__________________________________________________________________________________________________
dense_109 (Dense)               (None, 1)            101         global_average_pooling1d_92[0][0]
__________________________________________________________________________________________________
dense_110 (Dense)               (None, 1)            101         global_average_pooling1d_92[0][0]
==================================================================================================
Total params: 457,110
Trainable params: 457,110
Non-trainable params: 0
__________________________________________________________________________________________________
None
stacking
Fold  3
multi-task
multi-task
Loading Data
Training Model
vocab size 4569, sequence length 45
Building FastText Model
__________________________________________________________________________________________________
Layer (type)                    Output Shape         Param #     Connected to                     
==================================================================================================
input_93 (InputLayer)           (None, 45)           0                                            
__________________________________________________________________________________________________
embedding_93 (Embedding)        (None, 45, 100)      456900      input_93[0][0]                   
__________________________________________________________________________________________________
global_average_pooling1d_93 (Gl (None, 100)          0           embedding_93[0][0]               
__________________________________________________________________________________________________
dense_111 (Dense)               (None, 1)            101         global_average_pooling1d_93[0][0]
__________________________________________________________________________________________________
dense_112 (Dense)               (None, 1)            101         global_average_pooling1d_93[0][0]
__________________________________________________________________________________________________
dense_113 (Dense)               (None, 1)            101         global_average_pooling1d_93[0][0]
__________________________________________________________________________________________________
dense_114 (Dense)               (None, 1)            101         global_average_pooling1d_93[0][0]
__________________________________________________________________________________________________
dense_115 (Dense)               (None, 1)            101         global_average_pooling1d_93[0][0]
__________________________________________________________________________________________________
dense_116 (Dense)               (None, 1)            101         global_average_pooling1d_93[0][0]
__________________________________________________________________________________________________
dense_117 (Dense)               (None, 1)            101         global_average_pooling1d_93[0][0]
__________________________________________________________________________________________________
dense_118 (Dense)               (None, 1)            101         global_average_pooling1d_93[0][0]
__________________________________________________________________________________________________
dense_119 (Dense)               (None, 1)            101         global_average_pooling1d_93[0][0]
__________________________________________________________________________________________________
dense_120 (Dense)               (None, 1)            101         global_average_pooling1d_93[0][0]
==================================================================================================
Total params: 457,910
Trainable params: 457,910
Non-trainable params: 0
__________________________________________________________________________________________________
None
stacking
Fold  4
multi-task
multi-task
Loading Data
Training Model
vocab size 4518, sequence length 45
Building FastText Model
__________________________________________________________________________________________________
Layer (type)                    Output Shape         Param #     Connected to                     
==================================================================================================
input_94 (InputLayer)           (None, 45)           0                                            
__________________________________________________________________________________________________
embedding_94 (Embedding)        (None, 45, 100)      451800      input_94[0][0]                   
__________________________________________________________________________________________________
global_average_pooling1d_94 (Gl (None, 100)          0           embedding_94[0][0]               
__________________________________________________________________________________________________
dense_121 (Dense)               (None, 1)            101         global_average_pooling1d_94[0][0]
__________________________________________________________________________________________________
dense_122 (Dense)               (None, 1)            101         global_average_pooling1d_94[0][0]
__________________________________________________________________________________________________
dense_123 (Dense)               (None, 1)            101         global_average_pooling1d_94[0][0]
__________________________________________________________________________________________________
dense_124 (Dense)               (None, 1)            101         global_average_pooling1d_94[0][0]
__________________________________________________________________________________________________
dense_125 (Dense)               (None, 1)            101         global_average_pooling1d_94[0][0]
__________________________________________________________________________________________________
dense_126 (Dense)               (None, 1)            101         global_average_pooling1d_94[0][0]
__________________________________________________________________________________________________
dense_127 (Dense)               (None, 1)            101         global_average_pooling1d_94[0][0]
__________________________________________________________________________________________________
dense_128 (Dense)               (None, 1)            101         global_average_pooling1d_94[0][0]
__________________________________________________________________________________________________
dense_129 (Dense)               (None, 1)            101         global_average_pooling1d_94[0][0]
__________________________________________________________________________________________________
dense_130 (Dense)               (None, 1)            101         global_average_pooling1d_94[0][0]
==================================================================================================
Total params: 452,810
Trainable params: 452,810
Non-trainable params: 0
__________________________________________________________________________________________________
None
stacking
Fold  5
multi-task
multi-task
Loading Data
Training Model
vocab size 4426, sequence length 45
Building FastText Model
__________________________________________________________________________________________________
Layer (type)                    Output Shape         Param #     Connected to                     
==================================================================================================
input_95 (InputLayer)           (None, 45)           0                                            
__________________________________________________________________________________________________
embedding_95 (Embedding)        (None, 45, 100)      442600      input_95[0][0]                   
__________________________________________________________________________________________________
global_average_pooling1d_95 (Gl (None, 100)          0           embedding_95[0][0]               
__________________________________________________________________________________________________
dense_131 (Dense)               (None, 1)            101         global_average_pooling1d_95[0][0]
__________________________________________________________________________________________________
dense_132 (Dense)               (None, 1)            101         global_average_pooling1d_95[0][0]
__________________________________________________________________________________________________
dense_133 (Dense)               (None, 1)            101         global_average_pooling1d_95[0][0]
__________________________________________________________________________________________________
dense_134 (Dense)               (None, 1)            101         global_average_pooling1d_95[0][0]
__________________________________________________________________________________________________
dense_135 (Dense)               (None, 1)            101         global_average_pooling1d_95[0][0]
__________________________________________________________________________________________________
dense_136 (Dense)               (None, 1)            101         global_average_pooling1d_95[0][0]
__________________________________________________________________________________________________
dense_137 (Dense)               (None, 1)            101         global_average_pooling1d_95[0][0]
__________________________________________________________________________________________________
dense_138 (Dense)               (None, 1)            101         global_average_pooling1d_95[0][0]
__________________________________________________________________________________________________
dense_139 (Dense)               (None, 1)            101         global_average_pooling1d_95[0][0]
__________________________________________________________________________________________________
dense_140 (Dense)               (None, 1)            101         global_average_pooling1d_95[0][0]
==================================================================================================
Total params: 443,610
Trainable params: 443,610
Non-trainable params: 0
__________________________________________________________________________________________________
None
stacking
time elapsed: 44.086975141995936
Fold  1
multi-task
multi-task
Loading Data
Training Model
vocab size 4537, sequence length 43
Building FastText Model
__________________________________________________________________________________________________
Layer (type)                    Output Shape         Param #     Connected to                     
==================================================================================================
input_96 (InputLayer)           (None, 43)           0                                            
__________________________________________________________________________________________________
embedding_96 (Embedding)        (None, 43, 100)      453700      input_96[0][0]                   
__________________________________________________________________________________________________
global_average_pooling1d_96 (Gl (None, 100)          0           embedding_96[0][0]               
__________________________________________________________________________________________________
dense_141 (Dense)               (None, 1)            101         global_average_pooling1d_96[0][0]
__________________________________________________________________________________________________
dense_142 (Dense)               (None, 1)            101         global_average_pooling1d_96[0][0]
__________________________________________________________________________________________________
dense_143 (Dense)               (None, 1)            101         global_average_pooling1d_96[0][0]
__________________________________________________________________________________________________
dense_144 (Dense)               (None, 1)            101         global_average_pooling1d_96[0][0]
__________________________________________________________________________________________________
dense_145 (Dense)               (None, 1)            101         global_average_pooling1d_96[0][0]
__________________________________________________________________________________________________
dense_146 (Dense)               (None, 1)            101         global_average_pooling1d_96[0][0]
__________________________________________________________________________________________________
dense_147 (Dense)               (None, 1)            101         global_average_pooling1d_96[0][0]
__________________________________________________________________________________________________
dense_148 (Dense)               (None, 1)            101         global_average_pooling1d_96[0][0]
__________________________________________________________________________________________________
dense_149 (Dense)               (None, 1)            101         global_average_pooling1d_96[0][0]
__________________________________________________________________________________________________
dense_150 (Dense)               (None, 1)            101         global_average_pooling1d_96[0][0]
==================================================================================================
Total params: 454,710
Trainable params: 454,710
Non-trainable params: 0
__________________________________________________________________________________________________
None
stacking
Fold  2
multi-task
multi-task
Loading Data
Training Model
vocab size 4561, sequence length 45
Building FastText Model
__________________________________________________________________________________________________
Layer (type)                    Output Shape         Param #     Connected to                     
==================================================================================================
input_97 (InputLayer)           (None, 45)           0                                            
__________________________________________________________________________________________________
embedding_97 (Embedding)        (None, 45, 100)      456100      input_97[0][0]                   
__________________________________________________________________________________________________
global_average_pooling1d_97 (Gl (None, 100)          0           embedding_97[0][0]               
__________________________________________________________________________________________________
dense_151 (Dense)               (None, 1)            101         global_average_pooling1d_97[0][0]
__________________________________________________________________________________________________
dense_152 (Dense)               (None, 1)            101         global_average_pooling1d_97[0][0]
__________________________________________________________________________________________________
dense_153 (Dense)               (None, 1)            101         global_average_pooling1d_97[0][0]
__________________________________________________________________________________________________
dense_154 (Dense)               (None, 1)            101         global_average_pooling1d_97[0][0]
__________________________________________________________________________________________________
dense_155 (Dense)               (None, 1)            101         global_average_pooling1d_97[0][0]
__________________________________________________________________________________________________
dense_156 (Dense)               (None, 1)            101         global_average_pooling1d_97[0][0]
__________________________________________________________________________________________________
dense_157 (Dense)               (None, 1)            101         global_average_pooling1d_97[0][0]
__________________________________________________________________________________________________
dense_158 (Dense)               (None, 1)            101         global_average_pooling1d_97[0][0]
__________________________________________________________________________________________________
dense_159 (Dense)               (None, 1)            101         global_average_pooling1d_97[0][0]
__________________________________________________________________________________________________
dense_160 (Dense)               (None, 1)            101         global_average_pooling1d_97[0][0]
==================================================================================================
Total params: 457,110
Trainable params: 457,110
Non-trainable params: 0
__________________________________________________________________________________________________
None
stacking
Fold  3
multi-task
multi-task
Loading Data
Training Model
vocab size 4569, sequence length 45
Building FastText Model
__________________________________________________________________________________________________
Layer (type)                    Output Shape         Param #     Connected to                     
==================================================================================================
input_98 (InputLayer)           (None, 45)           0                                            
__________________________________________________________________________________________________
embedding_98 (Embedding)        (None, 45, 100)      456900      input_98[0][0]                   
__________________________________________________________________________________________________
global_average_pooling1d_98 (Gl (None, 100)          0           embedding_98[0][0]               
__________________________________________________________________________________________________
dense_161 (Dense)               (None, 1)            101         global_average_pooling1d_98[0][0]
__________________________________________________________________________________________________
dense_162 (Dense)               (None, 1)            101         global_average_pooling1d_98[0][0]
__________________________________________________________________________________________________
dense_163 (Dense)               (None, 1)            101         global_average_pooling1d_98[0][0]
__________________________________________________________________________________________________
dense_164 (Dense)               (None, 1)            101         global_average_pooling1d_98[0][0]
__________________________________________________________________________________________________
dense_165 (Dense)               (None, 1)            101         global_average_pooling1d_98[0][0]
__________________________________________________________________________________________________
dense_166 (Dense)               (None, 1)            101         global_average_pooling1d_98[0][0]
__________________________________________________________________________________________________
dense_167 (Dense)               (None, 1)            101         global_average_pooling1d_98[0][0]
__________________________________________________________________________________________________
dense_168 (Dense)               (None, 1)            101         global_average_pooling1d_98[0][0]
__________________________________________________________________________________________________
dense_169 (Dense)               (None, 1)            101         global_average_pooling1d_98[0][0]
__________________________________________________________________________________________________
dense_170 (Dense)               (None, 1)            101         global_average_pooling1d_98[0][0]
==================================================================================================
Total params: 457,910
Trainable params: 457,910
Non-trainable params: 0
__________________________________________________________________________________________________
None
stacking
Fold  4
multi-task
multi-task
Loading Data
Training Model
vocab size 4518, sequence length 45
Building FastText Model
__________________________________________________________________________________________________
Layer (type)                    Output Shape         Param #     Connected to                     
==================================================================================================
input_99 (InputLayer)           (None, 45)           0                                            
__________________________________________________________________________________________________
embedding_99 (Embedding)        (None, 45, 100)      451800      input_99[0][0]                   
__________________________________________________________________________________________________
global_average_pooling1d_99 (Gl (None, 100)          0           embedding_99[0][0]               
__________________________________________________________________________________________________
dense_171 (Dense)               (None, 1)            101         global_average_pooling1d_99[0][0]
__________________________________________________________________________________________________
dense_172 (Dense)               (None, 1)            101         global_average_pooling1d_99[0][0]
__________________________________________________________________________________________________
dense_173 (Dense)               (None, 1)            101         global_average_pooling1d_99[0][0]
__________________________________________________________________________________________________
dense_174 (Dense)               (None, 1)            101         global_average_pooling1d_99[0][0]
__________________________________________________________________________________________________
dense_175 (Dense)               (None, 1)            101         global_average_pooling1d_99[0][0]
__________________________________________________________________________________________________
dense_176 (Dense)               (None, 1)            101         global_average_pooling1d_99[0][0]
__________________________________________________________________________________________________
dense_177 (Dense)               (None, 1)            101         global_average_pooling1d_99[0][0]
__________________________________________________________________________________________________
dense_178 (Dense)               (None, 1)            101         global_average_pooling1d_99[0][0]
__________________________________________________________________________________________________
dense_179 (Dense)               (None, 1)            101         global_average_pooling1d_99[0][0]
__________________________________________________________________________________________________
dense_180 (Dense)               (None, 1)            101         global_average_pooling1d_99[0][0]
==================================================================================================
Total params: 452,810
Trainable params: 452,810
Non-trainable params: 0
__________________________________________________________________________________________________
None
stacking
Fold  5
multi-task
multi-task
Loading Data
Training Model
vocab size 4426, sequence length 45
Building FastText Model
__________________________________________________________________________________________________
Layer (type)                    Output Shape         Param #     Connected to                     
==================================================================================================
input_100 (InputLayer)          (None, 45)           0                                            
__________________________________________________________________________________________________
embedding_100 (Embedding)       (None, 45, 100)      442600      input_100[0][0]                  
__________________________________________________________________________________________________
global_average_pooling1d_100 (G (None, 100)          0           embedding_100[0][0]              
__________________________________________________________________________________________________
dense_181 (Dense)               (None, 1)            101         global_average_pooling1d_100[0][0
__________________________________________________________________________________________________
dense_182 (Dense)               (None, 1)            101         global_average_pooling1d_100[0][0
__________________________________________________________________________________________________
dense_183 (Dense)               (None, 1)            101         global_average_pooling1d_100[0][0
__________________________________________________________________________________________________
dense_184 (Dense)               (None, 1)            101         global_average_pooling1d_100[0][0
__________________________________________________________________________________________________
dense_185 (Dense)               (None, 1)            101         global_average_pooling1d_100[0][0
__________________________________________________________________________________________________
dense_186 (Dense)               (None, 1)            101         global_average_pooling1d_100[0][0
__________________________________________________________________________________________________
dense_187 (Dense)               (None, 1)            101         global_average_pooling1d_100[0][0
__________________________________________________________________________________________________
dense_188 (Dense)               (None, 1)            101         global_average_pooling1d_100[0][0
__________________________________________________________________________________________________
dense_189 (Dense)               (None, 1)            101         global_average_pooling1d_100[0][0
__________________________________________________________________________________________________
dense_190 (Dense)               (None, 1)            101         global_average_pooling1d_100[0][0
==================================================================================================
Total params: 443,610
Trainable params: 443,610
Non-trainable params: 0
__________________________________________________________________________________________________
None
stacking
time elapsed: 98.94631143099832
Fold  1
multi-task
multi-task
Loading Data
Training Model
vocab size 4537, sequence length 43
Building FastText Model
__________________________________________________________________________________________________
Layer (type)                    Output Shape         Param #     Connected to                     
==================================================================================================
input_101 (InputLayer)          (None, 43)           0                                            
__________________________________________________________________________________________________
embedding_101 (Embedding)       (None, 43, 100)      453700      input_101[0][0]                  
__________________________________________________________________________________________________
global_average_pooling1d_101 (G (None, 100)          0           embedding_101[0][0]              
__________________________________________________________________________________________________
dense_191 (Dense)               (None, 1)            101         global_average_pooling1d_101[0][0
__________________________________________________________________________________________________
dense_192 (Dense)               (None, 1)            101         global_average_pooling1d_101[0][0
__________________________________________________________________________________________________
dense_193 (Dense)               (None, 1)            101         global_average_pooling1d_101[0][0
__________________________________________________________________________________________________
dense_194 (Dense)               (None, 1)            101         global_average_pooling1d_101[0][0
__________________________________________________________________________________________________
dense_195 (Dense)               (None, 1)            101         global_average_pooling1d_101[0][0
__________________________________________________________________________________________________
dense_196 (Dense)               (None, 1)            101         global_average_pooling1d_101[0][0
__________________________________________________________________________________________________
dense_197 (Dense)               (None, 1)            101         global_average_pooling1d_101[0][0
__________________________________________________________________________________________________
dense_198 (Dense)               (None, 1)            101         global_average_pooling1d_101[0][0
__________________________________________________________________________________________________
dense_199 (Dense)               (None, 1)            101         global_average_pooling1d_101[0][0
__________________________________________________________________________________________________
dense_200 (Dense)               (None, 1)            101         global_average_pooling1d_101[0][0
==================================================================================================
Total params: 454,710
Trainable params: 454,710
Non-trainable params: 0
__________________________________________________________________________________________________
None
stacking
Fold  2
multi-task
multi-task
Loading Data
Training Model
vocab size 4561, sequence length 45
Building FastText Model
__________________________________________________________________________________________________
Layer (type)                    Output Shape         Param #     Connected to                     
==================================================================================================
input_102 (InputLayer)          (None, 45)           0                                            
__________________________________________________________________________________________________
embedding_102 (Embedding)       (None, 45, 100)      456100      input_102[0][0]                  
__________________________________________________________________________________________________
global_average_pooling1d_102 (G (None, 100)          0           embedding_102[0][0]              
__________________________________________________________________________________________________
dense_201 (Dense)               (None, 1)            101         global_average_pooling1d_102[0][0
__________________________________________________________________________________________________
dense_202 (Dense)               (None, 1)            101         global_average_pooling1d_102[0][0
__________________________________________________________________________________________________
dense_203 (Dense)               (None, 1)            101         global_average_pooling1d_102[0][0
__________________________________________________________________________________________________
dense_204 (Dense)               (None, 1)            101         global_average_pooling1d_102[0][0
__________________________________________________________________________________________________
dense_205 (Dense)               (None, 1)            101         global_average_pooling1d_102[0][0
__________________________________________________________________________________________________
dense_206 (Dense)               (None, 1)            101         global_average_pooling1d_102[0][0
__________________________________________________________________________________________________
dense_207 (Dense)               (None, 1)            101         global_average_pooling1d_102[0][0
__________________________________________________________________________________________________
dense_208 (Dense)               (None, 1)            101         global_average_pooling1d_102[0][0
__________________________________________________________________________________________________
dense_209 (Dense)               (None, 1)            101         global_average_pooling1d_102[0][0
__________________________________________________________________________________________________
dense_210 (Dense)               (None, 1)            101         global_average_pooling1d_102[0][0
==================================================================================================
Total params: 457,110
Trainable params: 457,110
Non-trainable params: 0
__________________________________________________________________________________________________
None
stacking
Fold  3
multi-task
multi-task
Loading Data
Training Model
vocab size 4569, sequence length 45
Building FastText Model
__________________________________________________________________________________________________
Layer (type)                    Output Shape         Param #     Connected to                     
==================================================================================================
input_103 (InputLayer)          (None, 45)           0                                            
__________________________________________________________________________________________________
embedding_103 (Embedding)       (None, 45, 100)      456900      input_103[0][0]                  
__________________________________________________________________________________________________
global_average_pooling1d_103 (G (None, 100)          0           embedding_103[0][0]              
__________________________________________________________________________________________________
dense_211 (Dense)               (None, 1)            101         global_average_pooling1d_103[0][0
__________________________________________________________________________________________________
dense_212 (Dense)               (None, 1)            101         global_average_pooling1d_103[0][0
__________________________________________________________________________________________________
dense_213 (Dense)               (None, 1)            101         global_average_pooling1d_103[0][0
__________________________________________________________________________________________________
dense_214 (Dense)               (None, 1)            101         global_average_pooling1d_103[0][0
__________________________________________________________________________________________________
dense_215 (Dense)               (None, 1)            101         global_average_pooling1d_103[0][0
__________________________________________________________________________________________________
dense_216 (Dense)               (None, 1)            101         global_average_pooling1d_103[0][0
__________________________________________________________________________________________________
dense_217 (Dense)               (None, 1)            101         global_average_pooling1d_103[0][0
__________________________________________________________________________________________________
dense_218 (Dense)               (None, 1)            101         global_average_pooling1d_103[0][0
__________________________________________________________________________________________________
dense_219 (Dense)               (None, 1)            101         global_average_pooling1d_103[0][0
__________________________________________________________________________________________________
dense_220 (Dense)               (None, 1)            101         global_average_pooling1d_103[0][0
==================================================================================================
Total params: 457,910
Trainable params: 457,910
Non-trainable params: 0
__________________________________________________________________________________________________
None
stacking
Fold  4
multi-task
multi-task
Loading Data
Training Model
vocab size 4518, sequence length 45
Building FastText Model
__________________________________________________________________________________________________
Layer (type)                    Output Shape         Param #     Connected to                     
==================================================================================================
input_104 (InputLayer)          (None, 45)           0                                            
__________________________________________________________________________________________________
embedding_104 (Embedding)       (None, 45, 100)      451800      input_104[0][0]                  
__________________________________________________________________________________________________
global_average_pooling1d_104 (G (None, 100)          0           embedding_104[0][0]              
__________________________________________________________________________________________________
dense_221 (Dense)               (None, 1)            101         global_average_pooling1d_104[0][0
__________________________________________________________________________________________________
dense_222 (Dense)               (None, 1)            101         global_average_pooling1d_104[0][0
__________________________________________________________________________________________________
dense_223 (Dense)               (None, 1)            101         global_average_pooling1d_104[0][0
__________________________________________________________________________________________________
dense_224 (Dense)               (None, 1)            101         global_average_pooling1d_104[0][0
__________________________________________________________________________________________________
dense_225 (Dense)               (None, 1)            101         global_average_pooling1d_104[0][0
__________________________________________________________________________________________________
dense_226 (Dense)               (None, 1)            101         global_average_pooling1d_104[0][0
__________________________________________________________________________________________________
dense_227 (Dense)               (None, 1)            101         global_average_pooling1d_104[0][0
__________________________________________________________________________________________________
dense_228 (Dense)               (None, 1)            101         global_average_pooling1d_104[0][0
__________________________________________________________________________________________________
dense_229 (Dense)               (None, 1)            101         global_average_pooling1d_104[0][0
__________________________________________________________________________________________________
dense_230 (Dense)               (None, 1)            101         global_average_pooling1d_104[0][0
==================================================================================================
Total params: 452,810
Trainable params: 452,810
Non-trainable params: 0
__________________________________________________________________________________________________
None
stacking
Fold  5
multi-task
multi-task
Loading Data
Training Model
vocab size 4426, sequence length 45
Building FastText Model
__________________________________________________________________________________________________
Layer (type)                    Output Shape         Param #     Connected to                     
==================================================================================================
input_105 (InputLayer)          (None, 45)           0                                            
__________________________________________________________________________________________________
embedding_105 (Embedding)       (None, 45, 100)      442600      input_105[0][0]                  
__________________________________________________________________________________________________
global_average_pooling1d_105 (G (None, 100)          0           embedding_105[0][0]              
__________________________________________________________________________________________________
dense_231 (Dense)               (None, 1)            101         global_average_pooling1d_105[0][0
__________________________________________________________________________________________________
dense_232 (Dense)               (None, 1)            101         global_average_pooling1d_105[0][0
__________________________________________________________________________________________________
dense_233 (Dense)               (None, 1)            101         global_average_pooling1d_105[0][0
__________________________________________________________________________________________________
dense_234 (Dense)               (None, 1)            101         global_average_pooling1d_105[0][0
__________________________________________________________________________________________________
dense_235 (Dense)               (None, 1)            101         global_average_pooling1d_105[0][0
__________________________________________________________________________________________________
dense_236 (Dense)               (None, 1)            101         global_average_pooling1d_105[0][0
__________________________________________________________________________________________________
dense_237 (Dense)               (None, 1)            101         global_average_pooling1d_105[0][0
__________________________________________________________________________________________________
dense_238 (Dense)               (None, 1)            101         global_average_pooling1d_105[0][0
__________________________________________________________________________________________________
dense_239 (Dense)               (None, 1)            101         global_average_pooling1d_105[0][0
__________________________________________________________________________________________________
dense_240 (Dense)               (None, 1)            101         global_average_pooling1d_105[0][0
==================================================================================================
Total params: 443,610
Trainable params: 443,610
Non-trainable params: 0
__________________________________________________________________________________________________
None
stacking
time elapsed: 173.21728631499718
Fold  1
multi-task
multi-task
Loading Data
Training Model
vocab size 4537, sequence length 43
Building FastText Model
__________________________________________________________________________________________________
Layer (type)                    Output Shape         Param #     Connected to                     
==================================================================================================
input_106 (InputLayer)          (None, 43)           0                                            
__________________________________________________________________________________________________
embedding_106 (Embedding)       (None, 43, 100)      453700      input_106[0][0]                  
__________________________________________________________________________________________________
global_average_pooling1d_106 (G (None, 100)          0           embedding_106[0][0]              
__________________________________________________________________________________________________
dense_241 (Dense)               (None, 1)            101         global_average_pooling1d_106[0][0
__________________________________________________________________________________________________
dense_242 (Dense)               (None, 1)            101         global_average_pooling1d_106[0][0
__________________________________________________________________________________________________
dense_243 (Dense)               (None, 1)            101         global_average_pooling1d_106[0][0
__________________________________________________________________________________________________
dense_244 (Dense)               (None, 1)            101         global_average_pooling1d_106[0][0
__________________________________________________________________________________________________
dense_245 (Dense)               (None, 1)            101         global_average_pooling1d_106[0][0
__________________________________________________________________________________________________
dense_246 (Dense)               (None, 1)            101         global_average_pooling1d_106[0][0
__________________________________________________________________________________________________
dense_247 (Dense)               (None, 1)            101         global_average_pooling1d_106[0][0
__________________________________________________________________________________________________
dense_248 (Dense)               (None, 1)            101         global_average_pooling1d_106[0][0
__________________________________________________________________________________________________
dense_249 (Dense)               (None, 1)            101         global_average_pooling1d_106[0][0
__________________________________________________________________________________________________
dense_250 (Dense)               (None, 1)            101         global_average_pooling1d_106[0][0
==================================================================================================
Total params: 454,710
Trainable params: 454,710
Non-trainable params: 0
__________________________________________________________________________________________________
None
stacking
Fold  2
multi-task
multi-task
Loading Data
Training Model
vocab size 4561, sequence length 45
Building FastText Model
__________________________________________________________________________________________________
Layer (type)                    Output Shape         Param #     Connected to                     
==================================================================================================
input_107 (InputLayer)          (None, 45)           0                                            
__________________________________________________________________________________________________
embedding_107 (Embedding)       (None, 45, 100)      456100      input_107[0][0]                  
__________________________________________________________________________________________________
global_average_pooling1d_107 (G (None, 100)          0           embedding_107[0][0]              
__________________________________________________________________________________________________
dense_251 (Dense)               (None, 1)            101         global_average_pooling1d_107[0][0
__________________________________________________________________________________________________
dense_252 (Dense)               (None, 1)            101         global_average_pooling1d_107[0][0
__________________________________________________________________________________________________
dense_253 (Dense)               (None, 1)            101         global_average_pooling1d_107[0][0
__________________________________________________________________________________________________
dense_254 (Dense)               (None, 1)            101         global_average_pooling1d_107[0][0
__________________________________________________________________________________________________
dense_255 (Dense)               (None, 1)            101         global_average_pooling1d_107[0][0
__________________________________________________________________________________________________
dense_256 (Dense)               (None, 1)            101         global_average_pooling1d_107[0][0
__________________________________________________________________________________________________
dense_257 (Dense)               (None, 1)            101         global_average_pooling1d_107[0][0
__________________________________________________________________________________________________
dense_258 (Dense)               (None, 1)            101         global_average_pooling1d_107[0][0
__________________________________________________________________________________________________
dense_259 (Dense)               (None, 1)            101         global_average_pooling1d_107[0][0
__________________________________________________________________________________________________
dense_260 (Dense)               (None, 1)            101         global_average_pooling1d_107[0][0
==================================================================================================
Total params: 457,110
Trainable params: 457,110
Non-trainable params: 0
__________________________________________________________________________________________________
None
stacking
Fold  3
multi-task
multi-task
Loading Data
Training Model
vocab size 4569, sequence length 45
Building FastText Model
__________________________________________________________________________________________________
Layer (type)                    Output Shape         Param #     Connected to                     
==================================================================================================
input_108 (InputLayer)          (None, 45)           0                                            
__________________________________________________________________________________________________
embedding_108 (Embedding)       (None, 45, 100)      456900      input_108[0][0]                  
__________________________________________________________________________________________________
global_average_pooling1d_108 (G (None, 100)          0           embedding_108[0][0]              
__________________________________________________________________________________________________
dense_261 (Dense)               (None, 1)            101         global_average_pooling1d_108[0][0
__________________________________________________________________________________________________
dense_262 (Dense)               (None, 1)            101         global_average_pooling1d_108[0][0
__________________________________________________________________________________________________
dense_263 (Dense)               (None, 1)            101         global_average_pooling1d_108[0][0
__________________________________________________________________________________________________
dense_264 (Dense)               (None, 1)            101         global_average_pooling1d_108[0][0
__________________________________________________________________________________________________
dense_265 (Dense)               (None, 1)            101         global_average_pooling1d_108[0][0
__________________________________________________________________________________________________
dense_266 (Dense)               (None, 1)            101         global_average_pooling1d_108[0][0
__________________________________________________________________________________________________
dense_267 (Dense)               (None, 1)            101         global_average_pooling1d_108[0][0
__________________________________________________________________________________________________
dense_268 (Dense)               (None, 1)            101         global_average_pooling1d_108[0][0
__________________________________________________________________________________________________
dense_269 (Dense)               (None, 1)            101         global_average_pooling1d_108[0][0
__________________________________________________________________________________________________
dense_270 (Dense)               (None, 1)            101         global_average_pooling1d_108[0][0
==================================================================================================
Total params: 457,910
Trainable params: 457,910
Non-trainable params: 0
__________________________________________________________________________________________________
None
stacking
Fold  4
multi-task
multi-task
Loading Data
Training Model
vocab size 4518, sequence length 45
Building FastText Model
__________________________________________________________________________________________________
Layer (type)                    Output Shape         Param #     Connected to                     
==================================================================================================
input_109 (InputLayer)          (None, 45)           0                                            
__________________________________________________________________________________________________
embedding_109 (Embedding)       (None, 45, 100)      451800      input_109[0][0]                  
__________________________________________________________________________________________________
global_average_pooling1d_109 (G (None, 100)          0           embedding_109[0][0]              
__________________________________________________________________________________________________
dense_271 (Dense)               (None, 1)            101         global_average_pooling1d_109[0][0
__________________________________________________________________________________________________
dense_272 (Dense)               (None, 1)            101         global_average_pooling1d_109[0][0
__________________________________________________________________________________________________
dense_273 (Dense)               (None, 1)            101         global_average_pooling1d_109[0][0
__________________________________________________________________________________________________
dense_274 (Dense)               (None, 1)            101         global_average_pooling1d_109[0][0
__________________________________________________________________________________________________
…
==================================================================================================
Total params: 473,085
Trainable params: 473,085
Non-trainable params: 0
__________________________________________________________________________________________________
None
stacking
Fold  2
0
multi-task
Loading Data
Training Model
Building Multilayer Perceptron
__________________________________________________________________________________________________
Layer (type)                    Output Shape         Param #     Connected to                     
==================================================================================================
input_257 (InputLayer)          (None, 18908)        0                                            
__________________________________________________________________________________________________
dense_1183 (Dense)              (None, 25)           472725      input_257[0][0]                  
__________________________________________________________________________________________________
dropout_243 (Dropout)           (None, 25)           0           dense_1183[0][0]                 
__________________________________________________________________________________________________
dense_1184 (Dense)              (None, 25)           650         dropout_243[0][0]                
__________________________________________________________________________________________________
dropout_244 (Dropout)           (None, 25)           0           dense_1184[0][0]                 
__________________________________________________________________________________________________
dense_1185 (Dense)              (None, 1)            26          dropout_244[0][0]                
__________________________________________________________________________________________________
dense_1186 (Dense)              (None, 1)            26          dropout_244[0][0]                
__________________________________________________________________________________________________
dense_1187 (Dense)              (None, 1)            26          dropout_244[0][0]                
__________________________________________________________________________________________________
dense_1188 (Dense)              (None, 1)            26          dropout_244[0][0]                
__________________________________________________________________________________________________
dense_1189 (Dense)              (None, 1)            26          dropout_244[0][0]                
__________________________________________________________________________________________________
dense_1190 (Dense)              (None, 1)            26          dropout_244[0][0]                
__________________________________________________________________________________________________
dense_1191 (Dense)              (None, 1)            26          dropout_244[0][0]                
__________________________________________________________________________________________________
dense_1192 (Dense)              (None, 1)            26          dropout_244[0][0]                
__________________________________________________________________________________________________
dense_1193 (Dense)              (None, 1)            26          dropout_244[0][0]                
__________________________________________________________________________________________________
dense_1194 (Dense)              (None, 1)            26          dropout_244[0][0]                
==================================================================================================
Total params: 473,635
Trainable params: 473,635
Non-trainable params: 0
__________________________________________________________________________________________________
None
stacking
Fold  3
0
multi-task
Loading Data
Training Model
Building Multilayer Perceptron
__________________________________________________________________________________________________
Layer (type)                    Output Shape         Param #     Connected to                     
==================================================================================================
input_258 (InputLayer)          (None, 19048)        0                                            
__________________________________________________________________________________________________
dense_1195 (Dense)              (None, 25)           476225      input_258[0][0]                  
__________________________________________________________________________________________________
dropout_245 (Dropout)           (None, 25)           0           dense_1195[0][0]                 
__________________________________________________________________________________________________
dense_1196 (Dense)              (None, 25)           650         dropout_245[0][0]                
__________________________________________________________________________________________________
dropout_246 (Dropout)           (None, 25)           0           dense_1196[0][0]                 
__________________________________________________________________________________________________
dense_1197 (Dense)              (None, 1)            26          dropout_246[0][0]                
__________________________________________________________________________________________________
dense_1198 (Dense)              (None, 1)            26          dropout_246[0][0]                
__________________________________________________________________________________________________
dense_1199 (Dense)              (None, 1)            26          dropout_246[0][0]                
__________________________________________________________________________________________________
dense_1200 (Dense)              (None, 1)            26          dropout_246[0][0]                
__________________________________________________________________________________________________
dense_1201 (Dense)              (None, 1)            26          dropout_246[0][0]                
__________________________________________________________________________________________________
dense_1202 (Dense)              (None, 1)            26          dropout_246[0][0]                
__________________________________________________________________________________________________
dense_1203 (Dense)              (None, 1)            26          dropout_246[0][0]                
__________________________________________________________________________________________________
dense_1204 (Dense)              (None, 1)            26          dropout_246[0][0]                
__________________________________________________________________________________________________
dense_1205 (Dense)              (None, 1)            26          dropout_246[0][0]                
__________________________________________________________________________________________________
dense_1206 (Dense)              (None, 1)            26          dropout_246[0][0]                
==================================================================================================
Total params: 477,135
Trainable params: 477,135
Non-trainable params: 0
__________________________________________________________________________________________________
None
stacking
Fold  4
0
multi-task
Loading Data
Training Model
Building Multilayer Perceptron
__________________________________________________________________________________________________
Layer (type)                    Output Shape         Param #     Connected to                     
==================================================================================================
input_259 (InputLayer)          (None, 18673)        0                                            
__________________________________________________________________________________________________
dense_1207 (Dense)              (None, 25)           466850      input_259[0][0]                  
__________________________________________________________________________________________________
dropout_247 (Dropout)           (None, 25)           0           dense_1207[0][0]                 
__________________________________________________________________________________________________
dense_1208 (Dense)              (None, 25)           650         dropout_247[0][0]                
__________________________________________________________________________________________________
dropout_248 (Dropout)           (None, 25)           0           dense_1208[0][0]                 
__________________________________________________________________________________________________
dense_1209 (Dense)              (None, 1)            26          dropout_248[0][0]                
__________________________________________________________________________________________________
dense_1210 (Dense)              (None, 1)            26          dropout_248[0][0]                
__________________________________________________________________________________________________
dense_1211 (Dense)              (None, 1)            26          dropout_248[0][0]                
__________________________________________________________________________________________________
dense_1212 (Dense)              (None, 1)            26          dropout_248[0][0]                
__________________________________________________________________________________________________
dense_1213 (Dense)              (None, 1)            26          dropout_248[0][0]                
__________________________________________________________________________________________________
dense_1214 (Dense)              (None, 1)            26          dropout_248[0][0]                
__________________________________________________________________________________________________
dense_1215 (Dense)              (None, 1)            26          dropout_248[0][0]                
__________________________________________________________________________________________________
dense_1216 (Dense)              (None, 1)            26          dropout_248[0][0]                
__________________________________________________________________________________________________
dense_1217 (Dense)              (None, 1)            26          dropout_248[0][0]                
__________________________________________________________________________________________________
dense_1218 (Dense)              (None, 1)            26          dropout_248[0][0]                
==================================================================================================
Total params: 467,760
Trainable params: 467,760
Non-trainable params: 0
__________________________________________________________________________________________________
None
stacking
Fold  5
0
multi-task
Loading Data
Training Model
Building Multilayer Perceptron
__________________________________________________________________________________________________
Layer (type)                    Output Shape         Param #     Connected to                     
==================================================================================================
input_260 (InputLayer)          (None, 18390)        0                                            
__________________________________________________________________________________________________
dense_1219 (Dense)              (None, 25)           459775      input_260[0][0]                  
__________________________________________________________________________________________________
dropout_249 (Dropout)           (None, 25)           0           dense_1219[0][0]                 
__________________________________________________________________________________________________
dense_1220 (Dense)              (None, 25)           650         dropout_249[0][0]                
__________________________________________________________________________________________________
dropout_250 (Dropout)           (None, 25)           0           dense_1220[0][0]                 
__________________________________________________________________________________________________
dense_1221 (Dense)              (None, 1)            26          dropout_250[0][0]                
__________________________________________________________________________________________________
dense_1222 (Dense)              (None, 1)            26          dropout_250[0][0]                
__________________________________________________________________________________________________
dense_1223 (Dense)              (None, 1)            26          dropout_250[0][0]                
__________________________________________________________________________________________________
dense_1224 (Dense)              (None, 1)            26          dropout_250[0][0]                
__________________________________________________________________________________________________
dense_1225 (Dense)              (None, 1)            26          dropout_250[0][0]                
__________________________________________________________________________________________________
dense_1226 (Dense)              (None, 1)            26          dropout_250[0][0]                
__________________________________________________________________________________________________
dense_1227 (Dense)              (None, 1)            26          dropout_250[0][0]                
__________________________________________________________________________________________________
dense_1228 (Dense)              (None, 1)            26          dropout_250[0][0]                
__________________________________________________________________________________________________
dense_1229 (Dense)              (None, 1)            26          dropout_250[0][0]                
__________________________________________________________________________________________________
dense_1230 (Dense)              (None, 1)            26          dropout_250[0][0]                
==================================================================================================
Total params: 460,685
Trainable params: 460,685
Non-trainable params: 0
__________________________________________________________________________________________________
None
stacking
time elapsed: 1546.695381913989
Fold  1
0
multi-task
Loading Data
Training Model
Building Multilayer Perceptron
__________________________________________________________________________________________________
Layer (type)                    Output Shape         Param #     Connected to                     
==================================================================================================
input_261 (InputLayer)          (None, 18886)        0                                            
__________________________________________________________________________________________________
dense_1231 (Dense)              (None, 25)           472175      input_261[0][0]                  
__________________________________________________________________________________________________
dropout_251 (Dropout)           (None, 25)           0           dense_1231[0][0]                 
__________________________________________________________________________________________________
dense_1232 (Dense)              (None, 25)           650         dropout_251[0][0]                
__________________________________________________________________________________________________
dropout_252 (Dropout)           (None, 25)           0           dense_1232[0][0]                 
__________________________________________________________________________________________________
dense_1233 (Dense)              (None, 1)            26          dropout_252[0][0]                
__________________________________________________________________________________________________
dense_1234 (Dense)              (None, 1)            26          dropout_252[0][0]                
__________________________________________________________________________________________________
dense_1235 (Dense)              (None, 1)            26          dropout_252[0][0]                
__________________________________________________________________________________________________
dense_1236 (Dense)              (None, 1)            26          dropout_252[0][0]                
__________________________________________________________________________________________________
dense_1237 (Dense)              (None, 1)            26          dropout_252[0][0]                
__________________________________________________________________________________________________
dense_1238 (Dense)              (None, 1)            26          dropout_252[0][0]                
__________________________________________________________________________________________________
dense_1239 (Dense)              (None, 1)            26          dropout_252[0][0]                
__________________________________________________________________________________________________
dense_1240 (Dense)              (None, 1)            26          dropout_252[0][0]                
__________________________________________________________________________________________________
dense_1241 (Dense)              (None, 1)            26          dropout_252[0][0]                
__________________________________________________________________________________________________
dense_1242 (Dense)              (None, 1)            26          dropout_252[0][0]                
==================================================================================================
Total params: 473,085
Trainable params: 473,085
Non-trainable params: 0
__________________________________________________________________________________________________
None
stacking
Fold  2
0
multi-task
Loading Data
Training Model
Building Multilayer Perceptron
__________________________________________________________________________________________________
Layer (type)                    Output Shape         Param #     Connected to                     
==================================================================================================
input_262 (InputLayer)          (None, 18908)        0                                            
__________________________________________________________________________________________________
dense_1243 (Dense)              (None, 25)           472725      input_262[0][0]                  
__________________________________________________________________________________________________
dropout_253 (Dropout)           (None, 25)           0           dense_1243[0][0]                 
__________________________________________________________________________________________________
dense_1244 (Dense)              (None, 25)           650         dropout_253[0][0]                
__________________________________________________________________________________________________
dropout_254 (Dropout)           (None, 25)           0           dense_1244[0][0]                 
__________________________________________________________________________________________________
dense_1245 (Dense)              (None, 1)            26          dropout_254[0][0]                
__________________________________________________________________________________________________
dense_1246 (Dense)              (None, 1)            26          dropout_254[0][0]                
__________________________________________________________________________________________________
dense_1247 (Dense)              (None, 1)            26          dropout_254[0][0]                
__________________________________________________________________________________________________
dense_1248 (Dense)              (None, 1)            26          dropout_254[0][0]                
__________________________________________________________________________________________________
dense_1249 (Dense)              (None, 1)            26          dropout_254[0][0]                
__________________________________________________________________________________________________
dense_1250 (Dense)              (None, 1)            26          dropout_254[0][0]                
__________________________________________________________________________________________________
dense_1251 (Dense)              (None, 1)            26          dropout_254[0][0]                
__________________________________________________________________________________________________
dense_1252 (Dense)              (None, 1)            26          dropout_254[0][0]                
__________________________________________________________________________________________________
dense_1253 (Dense)              (None, 1)            26          dropout_254[0][0]                
__________________________________________________________________________________________________
dense_1254 (Dense)              (None, 1)            26          dropout_254[0][0]                
==================================================================================================
Total params: 473,635
Trainable params: 473,635
Non-trainable params: 0
__________________________________________________________________________________________________
None
stacking
Fold  3
0
multi-task
Loading Data
Training Model
Building Multilayer Perceptron
__________________________________________________________________________________________________
Layer (type)                    Output Shape         Param #     Connected to                     
==================================================================================================
input_263 (InputLayer)          (None, 19048)        0                                            
__________________________________________________________________________________________________
dense_1255 (Dense)              (None, 25)           476225      input_263[0][0]                  
__________________________________________________________________________________________________
dropout_255 (Dropout)           (None, 25)           0           dense_1255[0][0]                 
__________________________________________________________________________________________________
dense_1256 (Dense)              (None, 25)           650         dropout_255[0][0]                
__________________________________________________________________________________________________
dropout_256 (Dropout)           (None, 25)           0           dense_1256[0][0]                 
__________________________________________________________________________________________________
dense_1257 (Dense)              (None, 1)            26          dropout_256[0][0]                
__________________________________________________________________________________________________
dense_1258 (Dense)              (None, 1)            26          dropout_256[0][0]                
__________________________________________________________________________________________________
dense_1259 (Dense)              (None, 1)            26          dropout_256[0][0]                
__________________________________________________________________________________________________
dense_1260 (Dense)              (None, 1)            26          dropout_256[0][0]                
__________________________________________________________________________________________________
dense_1261 (Dense)              (None, 1)            26          dropout_256[0][0]                
__________________________________________________________________________________________________
dense_1262 (Dense)              (None, 1)            26          dropout_256[0][0]                
__________________________________________________________________________________________________
dense_1263 (Dense)              (None, 1)            26          dropout_256[0][0]                
__________________________________________________________________________________________________
dense_1264 (Dense)              (None, 1)            26          dropout_256[0][0]                
__________________________________________________________________________________________________
dense_1265 (Dense)              (None, 1)            26          dropout_256[0][0]                
__________________________________________________________________________________________________
dense_1266 (Dense)              (None, 1)            26          dropout_256[0][0]                
==================================================================================================
Total params: 477,135
Trainable params: 477,135
Non-trainable params: 0
__________________________________________________________________________________________________
None
stacking
Fold  4
0
multi-task
Loading Data
Training Model
Building Multilayer Perceptron
__________________________________________________________________________________________________
Layer (type)                    Output Shape         Param #     Connected to                     
==================================================================================================
input_264 (InputLayer)          (None, 18673)        0                                            
__________________________________________________________________________________________________
dense_1267 (Dense)              (None, 25)           466850      input_264[0][0]                  
__________________________________________________________________________________________________
dropout_257 (Dropout)           (None, 25)           0           dense_1267[0][0]                 
__________________________________________________________________________________________________
dense_1268 (Dense)              (None, 25)           650         dropout_257[0][0]                
__________________________________________________________________________________________________
dropout_258 (Dropout)           (None, 25)           0           dense_1268[0][0]                 
__________________________________________________________________________________________________
dense_1269 (Dense)              (None, 1)            26          dropout_258[0][0]                
__________________________________________________________________________________________________
dense_1270 (Dense)              (None, 1)            26          dropout_258[0][0]                
__________________________________________________________________________________________________
dense_1271 (Dense)              (None, 1)            26          dropout_258[0][0]                
__________________________________________________________________________________________________
dense_1272 (Dense)              (None, 1)            26          dropout_258[0][0]                
__________________________________________________________________________________________________
dense_1273 (Dense)              (None, 1)            26          dropout_258[0][0]                
__________________________________________________________________________________________________
dense_1274 (Dense)              (None, 1)            26          dropout_258[0][0]                
__________________________________________________________________________________________________
dense_1275 (Dense)              (None, 1)            26          dropout_258[0][0]                
__________________________________________________________________________________________________
dense_1276 (Dense)              (None, 1)            26          dropout_258[0][0]                
__________________________________________________________________________________________________
dense_1277 (Dense)              (None, 1)            26          dropout_258[0][0]                
__________________________________________________________________________________________________
dense_1278 (Dense)              (None, 1)            26          dropout_258[0][0]                
==================================================================================================
Total params: 467,760
Trainable params: 467,760
Non-trainable params: 0
__________________________________________________________________________________________________
None
stacking
Fold  5
0
multi-task
Loading Data
Training Model
Building Multilayer Perceptron
__________________________________________________________________________________________________
Layer (type)                    Output Shape         Param #     Connected to                     
==================================================================================================
input_265 (InputLayer)          (None, 18390)        0                                            
__________________________________________________________________________________________________
dense_1279 (Dense)              (None, 25)           459775      input_265[0][0]                  
__________________________________________________________________________________________________
dropout_259 (Dropout)           (None, 25)           0           dense_1279[0][0]                 
__________________________________________________________________________________________________
dense_1280 (Dense)              (None, 25)           650         dropout_259[0][0]                
__________________________________________________________________________________________________
dropout_260 (Dropout)           (None, 25)           0           dense_1280[0][0]                 
__________________________________________________________________________________________________
dense_1281 (Dense)              (None, 1)            26          dropout_260[0][0]                
__________________________________________________________________________________________________
dense_1282 (Dense)              (None, 1)            26          dropout_260[0][0]                
__________________________________________________________________________________________________
dense_1283 (Dense)              (None, 1)            26          dropout_260[0][0]                
__________________________________________________________________________________________________
dense_1284 (Dense)              (None, 1)            26          dropout_260[0][0]                
__________________________________________________________________________________________________
dense_1285 (Dense)              (None, 1)            26          dropout_260[0][0]                
__________________________________________________________________________________________________
dense_1286 (Dense)              (None, 1)            26          dropout_260[0][0]                
__________________________________________________________________________________________________
dense_1287 (Dense)              (None, 1)            26          dropout_260[0][0]                
__________________________________________________________________________________________________
dense_1288 (Dense)              (None, 1)            26          dropout_260[0][0]                
__________________________________________________________________________________________________
dense_1289 (Dense)              (None, 1)            26          dropout_260[0][0]                
__________________________________________________________________________________________________
dense_1290 (Dense)              (None, 1)            26          dropout_260[0][0]                
==================================================================================================
Total params: 460,685
Trainable params: 460,685
Non-trainable params: 0
__________________________________________________________________________________________________
None
stacking
time elapsed: 1810.3174066350039
Fold  1
0
multi-task
Loading Data
Training Model
Building Multilayer Perceptron
__________________________________________________________________________________________________
Layer (type)                    Output Shape         Param #     Connected to                     
==================================================================================================
input_266 (InputLayer)          (None, 18886)        0                                            
__________________________________________________________________________________________________
dense_1291 (Dense)              (None, 25)           472175      input_266[0][0]                  
__________________________________________________________________________________________________
dropout_261 (Dropout)           (None, 25)           0           dense_1291[0][0]                 
__________________________________________________________________________________________________
dense_1292 (Dense)              (None, 25)           650         dropout_261[0][0]                
__________________________________________________________________________________________________
dropout_262 (Dropout)           (None, 25)           0           dense_1292[0][0]                 
__________________________________________________________________________________________________
dense_1293 (Dense)              (None, 1)            26          dropout_262[0][0]                
__________________________________________________________________________________________________
dense_1294 (Dense)              (None, 1)            26          dropout_262[0][0]                
__________________________________________________________________________________________________
dense_1295 (Dense)              (None, 1)            26          dropout_262[0][0]                
__________________________________________________________________________________________________
dense_1296 (Dense)              (None, 1)            26          dropout_262[0][0]                
__________________________________________________________________________________________________
dense_1297 (Dense)              (None, 1)            26          dropout_262[0][0]                
__________________________________________________________________________________________________
dense_1298 (Dense)              (None, 1)            26          dropout_262[0][0]                
__________________________________________________________________________________________________
dense_1299 (Dense)              (None, 1)            26          dropout_262[0][0]                
__________________________________________________________________________________________________
dense_1300 (Dense)              (None, 1)            26          dropout_262[0][0]                
__________________________________________________________________________________________________
dense_1301 (Dense)              (None, 1)            26          dropout_262[0][0]                
__________________________________________________________________________________________________
dense_1302 (Dense)              (None, 1)            26          dropout_262[0][0]                
==================================================================================================
Total params: 473,085
Trainable params: 473,085
Non-trainable params: 0
__________________________________________________________________________________________________
None
stacking
Fold  2
0
multi-task
Loading Data
Training Model
Building Multilayer Perceptron
__________________________________________________________________________________________________
Layer (type)                    Output Shape         Param #     Connected to                     
==================================================================================================
input_267 (InputLayer)          (None, 18908)        0                                            
__________________________________________________________________________________________________
dense_1303 (Dense)              (None, 25)           472725      input_267[0][0]                  
__________________________________________________________________________________________________
dropout_263 (Dropout)           (None, 25)           0           dense_1303[0][0]                 
__________________________________________________________________________________________________
dense_1304 (Dense)              (None, 25)           650         dropout_263[0][0]                
__________________________________________________________________________________________________
dropout_264 (Dropout)           (None, 25)           0           dense_1304[0][0]                 
__________________________________________________________________________________________________
dense_1305 (Dense)              (None, 1)            26          dropout_264[0][0]                
__________________________________________________________________________________________________
dense_1306 (Dense)              (None, 1)            26          dropout_264[0][0]                
__________________________________________________________________________________________________
dense_1307 (Dense)              (None, 1)            26          dropout_264[0][0]                
__________________________________________________________________________________________________
dense_1308 (Dense)              (None, 1)            26          dropout_264[0][0]                
__________________________________________________________________________________________________
dense_1309 (Dense)              (None, 1)            26          dropout_264[0][0]                
__________________________________________________________________________________________________
dense_1310 (Dense)              (None, 1)            26          dropout_264[0][0]                
__________________________________________________________________________________________________
dense_1311 (Dense)              (None, 1)            26          dropout_264[0][0]                
__________________________________________________________________________________________________
dense_1312 (Dense)              (None, 1)            26          dropout_264[0][0]                
__________________________________________________________________________________________________
dense_1313 (Dense)              (None, 1)            26          dropout_264[0][0]                
__________________________________________________________________________________________________
dense_1314 (Dense)              (None, 1)            26          dropout_264[0][0]                
==================================================================================================
Total params: 473,635
Trainable params: 473,635
Non-trainable params: 0
__________________________________________________________________________________________________
None
stacking
Fold  3
0
multi-task
Loading Data
Training Model
Building Multilayer Perceptron
__________________________________________________________________________________________________
Layer (type)                    Output Shape         Param #     Connected to                     
==================================================================================================
input_268 (InputLayer)          (None, 19048)        0                                            
__________________________________________________________________________________________________
dense_1315 (Dense)              (None, 25)           476225      input_268[0][0]                  
__________________________________________________________________________________________________
dropout_265 (Dropout)           (None, 25)           0           dense_1315[0][0]                 
__________________________________________________________________________________________________
dense_1316 (Dense)              (None, 25)           650         dropout_265[0][0]                
__________________________________________________________________________________________________
dropout_266 (Dropout)           (None, 25)           0           dense_1316[0][0]                 
__________________________________________________________________________________________________
dense_1317 (Dense)              (None, 1)            26          dropout_266[0][0]                
__________________________________________________________________________________________________
dense_1318 (Dense)              (None, 1)            26          dropout_266[0][0]                
__________________________________________________________________________________________________
dense_1319 (Dense)              (None, 1)            26          dropout_266[0][0]                
__________________________________________________________________________________________________
dense_1320 (Dense)              (None, 1)            26          dropout_266[0][0]                
__________________________________________________________________________________________________
dense_1321 (Dense)              (None, 1)            26          dropout_266[0][0]                
__________________________________________________________________________________________________
dense_1322 (Dense)              (None, 1)            26          dropout_266[0][0]                
__________________________________________________________________________________________________
dense_1323 (Dense)              (None, 1)            26          dropout_266[0][0]                
__________________________________________________________________________________________________
dense_1324 (Dense)              (None, 1)            26          dropout_266[0][0]                
__________________________________________________________________________________________________
dense_1325 (Dense)              (None, 1)            26          dropout_266[0][0]                
__________________________________________________________________________________________________
dense_1326 (Dense)              (None, 1)            26          dropout_266[0][0]                
==================================================================================================
Total params: 477,135
Trainable params: 477,135
Non-trainable params: 0
__________________________________________________________________________________________________
None
stacking
Fold  4
0
multi-task
Loading Data
Training Model
Building Multilayer Perceptron
__________________________________________________________________________________________________
Layer (type)                    Output Shape         Param #     Connected to                     
==================================================================================================
input_269 (InputLayer)          (None, 18673)        0                                            
__________________________________________________________________________________________________
dense_1327 (Dense)              (None, 25)           466850      input_269[0][0]                  
__________________________________________________________________________________________________
dropout_267 (Dropout)           (None, 25)           0           dense_1327[0][0]                 
__________________________________________________________________________________________________
dense_1328 (Dense)              (None, 25)           650         dropout_267[0][0]                
__________________________________________________________________________________________________
dropout_268 (Dropout)           (None, 25)           0           dense_1328[0][0]                 
__________________________________________________________________________________________________
dense_1329 (Dense)              (None, 1)            26          dropout_268[0][0]                
__________________________________________________________________________________________________
dense_1330 (Dense)              (None, 1)            26          dropout_268[0][0]                
__________________________________________________________________________________________________
dense_1331 (Dense)              (None, 1)            26          dropout_268[0][0]                
__________________________________________________________________________________________________
dense_1332 (Dense)              (None, 1)            26          dropout_268[0][0]                
__________________________________________________________________________________________________
dense_1333 (Dense)              (None, 1)            26          dropout_268[0][0]                
__________________________________________________________________________________________________
dense_1334 (Dense)              (None, 1)            26          dropout_268[0][0]                
__________________________________________________________________________________________________
dense_1335 (Dense)              (None, 1)            26          dropout_268[0][0]                
__________________________________________________________________________________________________
dense_1336 (Dense)              (None, 1)            26          dropout_268[0][0]                
__________________________________________________________________________________________________
dense_1337 (Dense)              (None, 1)            26          dropout_268[0][0]                
__________________________________________________________________________________________________
dense_1338 (Dense)              (None, 1)            26          dropout_268[0][0]                
==================================================================================================
Total params: 467,760
Trainable params: 467,760
Non-trainable params: 0
__________________________________________________________________________________________________
None
stacking
Fold  5
0
multi-task
Loading Data
Training Model
Building Multilayer Perceptron
__________________________________________________________________________________________________
Layer (type)                    Output Shape         Param #     Connected to                     
==================================================================================================
input_270 (InputLayer)          (None, 18390)        0                                            
__________________________________________________________________________________________________
dense_1339 (Dense)              (None, 25)           459775      input_270[0][0]                  
__________________________________________________________________________________________________
dropout_269 (Dropout)           (None, 25)           0           dense_1339[0][0]                 
__________________________________________________________________________________________________
dense_1340 (Dense)              (None, 25)           650         dropout_269[0][0]                
__________________________________________________________________________________________________
dropout_270 (Dropout)           (None, 25)           0           dense_1340[0][0]                 
__________________________________________________________________________________________________
dense_1341 (Dense)              (None, 1)            26          dropout_270[0][0]                
__________________________________________________________________________________________________
dense_1342 (Dense)              (None, 1)            26          dropout_270[0][0]                
__________________________________________________________________________________________________
dense_1343 (Dense)              (None, 1)            26          dropout_270[0][0]                
__________________________________________________________________________________________________
dense_1344 (Dense)              (None, 1)            26          dropout_270[0][0]                
__________________________________________________________________________________________________
dense_1345 (Dense)              (None, 1)            26          dropout_270[0][0]                
__________________________________________________________________________________________________
dense_1346 (Dense)              (None, 1)            26          dropout_270[0][0]                
__________________________________________________________________________________________________
dense_1347 (Dense)              (None, 1)            26          dropout_270[0][0]                
__________________________________________________________________________________________________
dense_1348 (Dense)              (None, 1)            26          dropout_270[0][0]                
__________________________________________________________________________________________________
dense_1349 (Dense)              (None, 1)            26          dropout_270[0][0]                
__________________________________________________________________________________________________
dense_1350 (Dense)              (None, 1)            26          dropout_270[0][0]                
==================================================================================================
Total params: 460,685
Trainable params: 460,685
Non-trainable params: 0
__________________________________________________________________________________________________
None
stacking
time elapsed: 2095.620479600999


Epochs: 10
/home/dan/.local/lib/python3.6/site-packages/sklearn/metrics/classification.py:1135: UndefinedMetricWarning: F-score is ill-defined and being set to 0.0 in labels with no predicted samples.
…
